bert/ablation/modernbert_o2_ablation_all/head_score.pt (torch, 4989 bytes, 1 tensors)

weight f4 [1, 768]
000000 83 b1 94 bc 77 98 38 3c 05 08 a7 bb ec 68 eb 3b
       -0.01815105 0.011266819 -0.0050973915 0.0071841385
000010 87 4d 88 b7 25 fd b0 3c f2 ae c7 bc 21 16 91 bc
       -1.6248565e-05 0.021605084 -0.024375413 -0.017710747
000020 75 15 a5 3c c0 e1 1e bc 0c 6c ed 3c ad c2 f3 bc
       0.020151833 -0.009697378 0.028982185 -0.029755915
000030 b4 4f b1 3c 8d ab 29 3c 08 12 9d 3c 95 50 e4 bc
       0.02164445 0.010355842 0.019173637 -0.027870456
000040 6a 77 a0 3c 9b f0 b4 bc 8e aa 89 bb aa ac fa 3c
       0.019588191 -0.022087386 -0.00420124 0.03059991
000050 ee 63 e6 3b 31 94 e0 3b c1 f6 10 3c 4f 44 d3 bc
       0.0070309555 0.0068536033 0.008847893 -0.025789408
000060 3a 8e 4b bb 97 aa 23 3b 32 71 ef bc 96 f9 19 3c
       -0.0031060115 0.0024973506 -0.02922878 0.009397885
000070 5c e3 7e 3c 9e 49 99 3c 8c db 59 39 76 72 fd bc
       0.015557136 0.018711861 0.0002077652 -0.030938368
000080 1c d4 ab 3c 81 b4 58 3c d1 28 e0 bc 86 42 de bc
       0.020975165 0.013226629 -0.027363213 -0.02713133
000090 b1 56 09 bd 3a 8b 19 bc 13 f9 35 bc c8 4c b2 3c
       -0.03352994 -0.009371573 -0.011106747 0.021765128
0000a0 da ee 95 bc 5d 34 d8 bc 79 56 67 3c b3 e3 35 bc
       -0.01830237 -0.026392156 0.014119738 -0.011101651
0000b0 68 b9 7f bc 6e 86 45 bc 3f 36 83 3b 1d 80 9a 39
       -0.015608169 -0.012055976 0.0040042694 0.0002946862
0000c0 3e a7 c5 3c a1 1e 11 3c d4 3b 9e 3c 76 bf 34 3c
       0.024127599 0.0088574 0.019315638 0.011031976
0000d0 76 72 d8 3a cf cb 0e bd 79 e9 b8 bc e6 04 c6 bb
       0.0016513604 -0.034862336 -0.022572266 -0.0060430644
0000e0 ec 4e eb 3c 95 14 8b 3c 2d fe fd b9 f9 74 81 bc
       0.028724156 0.016977588 -0.00048445296 -0.015802847
0000f0 b0 19 f9 bc 4f fd b4 3b 79 71 ce 3b dd 4e ba bc
       -0.030407757 0.005523361 0.006300148 -0.022742683
000100 69 63 95 3c 02 83 50 3c 6f 6b 96 bc 8c f4 e8 bb
       0.018235879 0.012726547 -0.018361775 -0.0071092304
000110 16 c6 f6 bc 3d 6c a4 bc 75 45 09 3c 23 5e b0 3c
       -0.030123752 -0.020071143 0.008378376 0.021529263
000120 19 1e f2 3c e2 9a 0f bd cc f9 e5 3c 26 77 ea bb
       0.029555367 -0.035059817 0.028073214 -0.007155317
000130 33 21 b4 bc 5c 2b 03 bd f0 b3 d4 bb 15 34 d9 bc
       -0.021988487 -0.032023773 -0.006491177 -0.026514092
000140 23 45 a0 3c 3d 4a 8d bb c2 a0 b6 ba 8f 92 12 3b
       0.019564217 -0.0043118284 -0.0013933408 0.0022365188
000150 67 c9 c6 bc 3a 43 6a 3c 4c 66 db 3c 04 a7 8b bc
       -0.024265958 0.014298255 0.026782177 -0.017047413
000160 80 e2 d2 bc 3a 6c a1 3c b4 e8 6a 3c 2d f3 bb 3c
       -0.02574277 0.019704927 0.014337707 0.022943104
000170 4b aa ed bb a8 47 79 bc a6 1b 1e bd 9e ef 46 bc
       -0.0072529665 -0.015214838 -0.038600586 -0.01214209
000180 e0 1c d1 bc 35 c3 0e bc d3 b1 e2 3a a1 f0 aa bc
       -0.025526464 -0.008713533 0.0017295427 -0.020866694
000190 72 ce eb 3b 09 b9 49 3c f0 0b a9 bc e1 d8 1a 3d
       0.007196241 0.012312182 -0.020635575 0.037804488
0001a0 ae d7 d9 3c 75 2a 15 bc e9 fb 84 bc a0 af a1 3c
       0.026592102 -0.009104361 -0.016233401 0.019737065
0001b0 fe 20 87 bb 5a 6f 99 3c c4 84 47 bb 09 be 67 bc
       -0.004123806 0.018729854 -0.0030444125 -0.014144429
0001c0 fe 8e 02 bd 81 1e a6 3b da 82 3a 3b 06 94 d1 3a
       -0.03187465 0.0050695543 0.0028459341 0.0015989549
0001d0 57 d5 9a 3c 70 c8 13 bd 5a 36 47 bc db 62 05 bc
       0.018900556 -0.036079824 -0.0121589545 -0.008141245
0001e0 7a 1f 0b 3d c8 97 04 3c 60 23 ea 3b ce 0c e5 3c
       0.033965565 0.008092828 0.0071453303 0.027960207
0001f0 66 cb 99 3c a4 dd e9 ba 1e 3d b5 bc 89 a3 a2 3c
       0.018773746 -0.0017842543 -0.02212387 0.01985337
000200 f5 ef 1b 3c fa 2b af 3c 4b 41 82 3c 85 a9 46 bc
       0.009517659 0.021383274 0.015900275 -0.012125378
000210 8d 02 2c bc 02 40 01 3d 25 df 5c bc 0e 11 2d bc
       -0.010498655 0.031555183 -0.013480936 -0.010563148
000220 23 d0 b8 bb 6b b6 01 3c 23 9f d6 bc 54 07 d1 3c
       -0.005640046 0.007917027 -0.02619893 0.02551619
000230 c5 cf c3 bb fe 20 a2 3b 1a 2c ec 3c 1a a2 d3 bc
       -0.005975696 0.0049477806 0.028829623 -0.025834132
000240 17 9b c9 3c 4d 7c 3a 3c 60 cc 80 3c f9 bb 1d 3c
       0.024610085 0.011382175 0.015722454 0.009627336
000250 d1 4c bf bb 97 c0 e1 3c 90 3f 0a b9 fa 3b 19 bd
       -0.0058380147 0.027557654 -0.00013184384 -0.037410714
000260 13 7d ec 3c 5d 8f 64 3c d9 68 7c bc 6b f6 c0 3b
       0.028868234 0.013950196 -0.015405857 0.0058887503
000270 ac 8f 96 3c 18 f8 cd bc 5e 39 84 bc ce e7 54 bc
       0.018379055 -0.025142714 -0.016140636 -0.01299472
000280 9e 5f 19 bc 7c 13 9d bc 1e 37 67 3b 09 c2 ec bb
       -0.009361176 -0.01917433 0.0035280655 -0.007225279
000290 75 cd 44 ba ef 9c 94 3c ca 37 3b 3c 27 d3 62 bc
       -0.0007507422 0.018141238 0.011426875 -0.013844288
0002a0 b8 18 95 3b da 01 5a bc ff 9e ff bc fb 4c ba bc
       0.004550066 -0.0133061055 -0.031203745 -0.022741785
0002b0 80 dd 5f bc 9c ba dd bb 99 a1 bc 3b 27 83 98 3c
       -0.01366365 -0.0067666303 0.0057565686 0.018617226
0002c0 39 41 6a bc 40 f2 5c bc 87 c3 74 bc a3 35 32 39
       -0.014297777 -0.013485491 -0.0149391955 0.00016995384
0002d0 d1 e0 8d 3c c5 ed f6 3c 90 c7 d8 3b c5 d3 ca bc
       0.017319115 0.030142674 0.0066155866 -0.024759183
0002e0 44 03 a2 3b 50 a7 99 3c 03 8e c9 bb 2e 68 7f bb
       0.004944237 0.018756539 -0.0061509623 -0.0038972008
0002f0 45 51 e2 3c 09 84 c1 bb 21 4b 66 39 dc 98 f0 3c
       0.027626643 -0.0059056324 0.00021962497 0.029369764
000300 74 16 04 bd 5b f6 58 3b 9b 66 56 3b 65 2d 2a 3c
       -0.032247975 0.0033105824 0.0032714966 0.010386799
000310 af 07 9f ba 02 94 ef 3c 29 c0 6f bc 63 52 ba bc
       -0.0012133027 0.02924538 -0.014633217 -0.022744363
000320 7b 18 62 bc b3 cd 02 bd 49 a7 92 3c 05 a0 4d bc
       -0.013799782 -0.03193445 0.017902033 -0.012550359
000330 7b ef ae 3c 9e 4d 0d bb 1a 88 d9 3b a1 a4 ed 3c
       0.021354428 -0.0021561156 0.006638539 0.029009165
000340 10 56 1e bd 69 8f 86 bc 00 3f 06 3d b1 28 f6 bb
       -0.038656294 -0.016425805 0.032774925 -0.007512175
000350 f1 64 8e 3c 40 e6 0d 3d 45 fa 56 3b 7b 11 d2 3b
       0.017382117 0.03464341 0.003280298 0.0064107752
000360 7a f8 ac 3c 49 7b 33 3d 80 85 92 3c 5e 1a 66 3c
       0.021114577 0.043818746 0.017885923 0.014044372
000370 6a 02 ca bc 31 36 d7 3c 78 f7 14 b9 81 6f 05 3b
       -0.024659354 0.026270958 -0.00014206569 0.002036065
000380 88 5b ca 3c b4 22 cd 3c ac 54 c4 b9 a6 ab 01 bd
       0.024701849 0.025040962 -0.0003744712 -0.031657837
000390 e4 23 78 3c 32 e5 bf bc e7 a5 8e 3a b3 60 be bc
       0.015145276 -0.023424719 0.0010883183 -0.02323947
0003a0 b2 e3 f9 3b a7 8d b5 3c 95 24 92 bb a2 0b 4c 3c
       0.0076260203 0.022162272 -0.0044599273 0.012453945
0003b0 41 bf 28 bc 24 2c a2 3c e4 cd 59 3c 68 60 91 bc
       -0.010299505 0.019796439 0.013293717 -0.017746165
0003c0 f0 d9 a7 3b 82 43 d9 3c c1 c1 d3 bb 39 87 65 3b
       0.0051224157 0.026521448 -0.0064623062 0.0035023226
0003d0 b6 10 87 3c 66 81 a4 3c 42 ea 97 bc 4e 11 00 bc
       0.01648746 0.020081233 -0.01854432 -0.007816626
0003e0 36 00 9d bc 4f f9 03 3d 31 ec 90 bc ed 33 86 3c
       -0.01916514 0.03222018 -0.01769075 0.016382182
0003f0 13 e2 ba 3c af 0c 1f 3c c3 c3 8e 3c 49 a9 0c bd
       0.022812879 0.009707614 0.01742733 -0.03434113
