results/runs/modernbert_o2_second/head_score.pt (torch, 4989 bytes, 1 tensors)

weight f4 [1, 768]
00000000: 0cd7 0bbd 237d 43bb 383b ca3b aa99 a1bb
00000010: 48ec baba 873f 2d3c 6963 43bc 019d 833c
00000020: 2bc8 84bc 9a50 70bc fad5 97bb 4af8 19bc
00000030: 3ab5 b23b 142d 84bb 7b71 673c 2fd9 f0bb
00000040: 6b8c 8bbb c81f 6fbc c079 a73c 7efa b73b
00000050: ae86 953c 232a 4b3a 4389 79bc ae48 bfbc
00000060: 9308 a3bb 5500 053b e1de 58bb c6cb 8ebb
00000070: c97e 54bc e078 80bc dd4b 743c b624 d0bb
00000080: f04e 9a3a b872 d93c 8528 06bc a1e5 843b
00000090: 52bb 97bc bc6d 9a3c 3214 073c 2710 10bc
000000a0: 28ab 653b 2988 573c 76cf 62bc d62b 0ebb
000000b0: 153c 163c 75b8 c3bc 52c8 cdbc 88fa ceb9
000000c0: 90bc 4cbc 5fde bf3c 308a 063c 363c ef3c
000000d0: 7f05 beba ac92 7639 8d36 3ebb 9a2b 353c
000000e0: 6d90 373c c67a b63b 2ec9 973c afe2 88bc
000000f0: 1005 c2bc 40e1 ab3b 0b8e 13bb d904 32bb
00000100: 6b0d 003c 1e2e 093c e264 113c 9c75 3f3c
00000110: 9d22 91ba b269 14bb 7437 0ebc 93a1 8fbc
00000120: 7e4c 553b 64d0 26bc 82c6 e93b 2a2b f13b
00000130: b16b d5bc 78cf f9ba 43c1 103c b0c9 ec3c
00000140: 949a 933c a03e 79b8 fd42 27bc c47a b9bb
00000150: 63b0 86bc ead6 a1bc e89b ce39 c056 183c
00000160: 56a9 80bc 549f 3e3c 5ed1 02bb 0eef 0b3c
00000170: 0480 e1bc 17aa 3b3c 3aa5 5739 3912 25bb
00000180: c7c4 bdbb 5342 023c 5953 26ba c67c 3239
00000190: 71a1 ad3b e3fd c13c 7409 d83c c162 73bc
000001a0: 376e 06bb 4384 0c3b f98d 233c 3c76 f3bb
000001b0: 5616 e33b 8ab0 d43b b50c 5eba fed7 81bc
000001c0: 126c 803c 2eb6 803b 3f03 4fbb 8397 90bc
000001d0: 2a24 adbc 7e01 c53c 92ec 27bb 02fd ca3b
000001e0: 4434 76bb 6bf7 d1bc 125e d03c 356d 09bd
000001f0: 09f6 5d3b b0fb 0fbd 5d88 853c d289 2abc
00000200: a0a1 f4bb 2864 fd3b 7985 cb3b 2ca2 2b3c
00000210: 8cdd 9c3c 4c31 2abc f02d 523c c306 97bc
00000220: 52a3 83bc c57f 22bb 5a23 91bc 1519 593c
00000230: e4be 7eba 169e 2bbb 3f0f 1a3c d7ce 793c
00000240: 00bf 8a3c 0c40 4ebc 76f4 a7ba 082c f4bb
00000250: f41f ae3b 8dd6 55bc 75f5 bc3a e323 a9bb
00000260: 8588 e73b 9e7f 92bc 173b 18bc 84e3 9e3b
00000270: 4cbf e6bb 2ae3 9bbc 527a 44bb 9f08 4e3b
00000280: 6cbe efbb c1a4 ea3b 05f7 9a39 430c 8dbc
00000290: e85a fe3b 21e6 833c ddf5 92bc 8342 2ebc
000002a0: 9135 543c d2c9 febc a5a7 8abb f352 6f3c
000002b0: fb7d 733c e088 6dbb d85c ea3c 6a64 6f3c
000002c0: c7fa 56bc 7e9d 2f3c 7f2d 053c 9dbd 5e3b
000002d0: bad7 21bc d224 8abc a122 913b ed7b 773c
000002e0: 4e02 a6bc 1f32 9abc c3fc 0fbd 9b35 523b
000002f0: 0608 8ebc 4897 b13b ff65 683b 11cc 9d3c
00000300: c377 8f3a 4c7c 02bd a815 05bc 66a3 54bb
00000310: c02b a9bb 8481 12bd 1fb1 fb3c 8c7f bf39
00000320: f68c 423c b95d 77ba 6909 8bbc 855a a239
00000330: bc33 2cbc 01cb fabb 24db e0ba a8a2 f3bb
00000340: 9176 8abc 98a7 7e3c 55b8 103c 0725 cabb
00000350: 4d0f a43c e1c3 903b 11c3 79bb f660 a3bc
00000360: 4908 c739 b3ce dabb 5cfc 4f3c 80bd 463b
00000370: 5354 8d3c 4c48 6abc cbab 3abb 4380 b43a
00000380: 84e5 1e3c e912 233b b652 383c 35f6 f2bb
00000390: caa2 773b 3d8a b8bb adf8 4ebc 4d06 1cbb
000003a0: 7b71 ec3a 9271 acbb 424c 57bb 7ecb 1dbb
000003b0: a05b 2bbb f863 a3bb 7688 a2bc 6443 b83c
000003c0: ff16 c5bc c7ec b9bc 3490 493c 6508 d43b
000003d0: db7b e93b c32b a53b afe7 9e3c e694 733b
000003e0: 41e5 b9bb c74e 8f3c 34f2 153c ab1c 08bc
000003f0: f0b7 89bc a4be 413c c96f 0b3c e18e e93b
-0.03414063 -0.0029829226 0.00617161 -0.0049316483 -0.0014261091 0.010574228 -0.011925557 0.016066076
-0.016208729 -0.014667654 -0.0046336623 -0.009397576 0.005453733 -0.004033694 0.014126177 -0.007350109
-0.0042586825 -0.01459498 0.020443797 0.005614578 0.018252697 0.00077501143 -0.01523048 -0.023350086
-0.0049753874 0.0020294387 -0.003309183 -0.004357788 -0.012969681 -0.015682638 0.014910665 -0.0063520325
0.0011772793 0.02654396 -0.008188372 0.004055694 -0.018521938 0.018851154 0.008244561 -0.0087929135
0.0035044644 0.013155022 -0.013843408 -0.0021693609 0.009169598 -0.023891667 -0.025119934 -0.00039478042
-0.012496129 0.023421464 0.008211657 0.029203515 -0.0014497488 0.00023515028 -0.0029024214 0.011057759
0.011203867 0.005568835 0.018528547 -0.016709654 -0.023684055 0.0052453578 -0.0022515084 -0.0027163534
0.007815699 0.008372812 0.00887415 0.011685755 -0.0011072938 -0.0022646007 -0.008680213 -0.0175331
0.0032546814 -0.01018152 0.0071342597 0.007359882 -0.026052328 -0.0019059023 0.00883514 0.028904766
0.018018045 -5.942455e-05 -0.010208842 -0.0056603868 -0.01644153 -0.0197558 0.0003940754 0.009298027
-0.015705746 0.0116346665 -0.0019961218 0.008540882 -0.027526863 0.011454127 0.0002056555 -0.0025187864
-0.00579128 0.007950383 -0.0006344817 0.00017021885 0.0052987863 0.023680633 0.026371695 -0.014855088
-0.002051247 0.0021441139 0.009982579 -0.007429866 0.006930153 0.0064907717 -0.00084705214 -0.015850063
0.015676532 0.0039279675 -0.0031587628 -0.017650371 -0.021135408 0.024048563 -0.0025623185 0.0061947117
-0.0037567774 -0.025630673 0.025435481 -0.033551414 0.0033868572 -0.035152137 0.016300375 -0.0104088355
-0.0074655563 0.007732887 0.0062109795 0.0104756765 0.01914861 -0.01038773 0.012828335 -0.018435841
-0.016069088 -0.0024795395 -0.017717052 0.013250609 -0.0009717776 -0.0026186756 0.009403049 0.015247068
0.016936779 -0.012588512 -0.0012813944 -0.007451538 0.0053138677 -0.013051641 0.0014416414 -0.0051617487
0.007065835 -0.017883118 -0.009291432 0.0048488993 -0.0070418473 -0.019029219 -0.0029980135 0.0031438244
-0.007316401 0.0071607535 0.00029557213 -0.01721776 0.0077623017 0.016100945 -0.017939502 -0.010635975
0.012952224 -0.031102095 -0.0042314106 0.014607179 0.014861579 -0.0036244914 0.028608724 0.014611343
-0.013121313 0.010718701 0.008128523 0.003398753 -0.009878093 -0.01686326 0.004429177 0.01510523
-0.02026477 -0.018822728 -0.03515316 0.0032075408 -0.01733781 0.0054196455 0.0035461185 0.019262346
0.0010945726 -0.03185682 -0.008122839 -0.0032446026 -0.005162686 -0.035768047 0.030724106 0.0003652539
0.011874428 -0.0009436268 -0.01697226 0.0003096649 -0.010510381 -0.0076535945 -0.0017155153 -0.0074351616
-0.01690224 0.015542887 0.008833011 -0.006168965 0.020026827 0.004417882 -0.0038110653 -0.019943696
0.0003796241 -0.0066774725 0.0126944445 0.0030325353 0.017252123 -0.0142994635 -0.0028483744 0.0013771135
0.0096982755 0.0024883098 0.011250189 -0.007414604 0.0037786239 -0.0056317137 -0.012632531 -0.0023807466
0.0018039191 -0.005262562 -0.003285185 -0.002407759 -0.0026147142 -0.0049862824 -0.01984046 0.022493072
-0.024058817 -0.022695912 0.012302447 0.0064707273 0.0071253604 0.005040617 0.019397585 0.0037167608
-0.005673081 0.017493619 0.009151984 -0.008307616 -0.016811341 0.011825237 0.008510538 0.007127628
