results/runs/modernbert_o1/heads.pt (torch, 11529 bytes, 3 tensors)

weight f4 [1, 768]
000000 2d 83 8c bc 0e 57 1c 3b 06 89 12 3c 22 12 6c 3b
       -0.017152393 0.00238556 0.008943802 0.003602155
000010 85 9f 30 bc c4 e7 0d 3d 7b e6 41 3c 53 8f 83 bc
       -0.01078022 0.034644857 0.011834736 -0.016059553
000020 ef e5 0b bd e2 e4 0a bd f6 96 11 3b d6 02 e6 bb
       -0.03415483 -0.033909686 0.0022215224 -0.007019381
000030 1f bd 91 3b b2 01 14 3d 1a cf f9 bc de 4a fc 3c
       0.004447594 0.03613443 -0.030494262 0.030797418
000040 8e 01 b1 3c 27 2d f1 bc 5f 8a 81 bc a7 0f df 3c
       0.021607187 -0.029440476 -0.01581305 0.027229143
000050 c6 93 ea bc 1d 95 ea bc 3e bb 2a 39 67 85 38 bc
       -0.028634917 -0.028635556 0.00016282217 -0.011262274
000060 56 cb 51 3b 43 6f fc bb db 7a 4a bb e5 94 d6 bc
       0.0032012067 -0.007703693 -0.0030895981 -0.026194045
000070 92 23 e6 3b e6 f3 66 bc 0f df b9 3a 2e 49 ac bc
       0.0070232833 -0.014096236 0.0014180857 -0.021030989
000080 53 14 1d bb a3 d2 08 bd 55 0f 0d 3c 5f cf cb bc
       -0.0023968413 -0.033404004 0.0086096125 -0.024879156
000090 63 42 91 bc a4 ca c7 bc e4 71 dd 3c ab 8f 85 3c
       -0.017731851 -0.024388619 0.027031846 0.016303858
0000a0 27 fb 85 bb 74 66 5c bc 3c 3d ce 3c 2d be 45 3b
       -0.0040887776 -0.013452161 0.025175683 0.0030173168
0000b0 a7 cf ac 3c bb 9b 03 3d 2b d5 3a bb c8 36 38 bc
       0.02109511 0.032130938 -0.0028508406 -0.01124353
0000c0 2f a8 52 3c df e3 bb 3c 15 93 af bc 65 96 da 3c
       0.012857481 0.022935806 -0.021432439 0.026683042
0000d0 6b 0c e9 3c e7 18 46 3c 5e 60 29 3c f4 99 b8 bc
       0.028448304 0.012090898 0.010337917 -0.022534348
0000e0 a9 bf 8a 3c e7 47 6e bb db cc b7 bc e4 6d ad bc
       0.016937094 -0.0036358775 -0.02243655 -0.021170564
0000f0 dd 00 eb bc 90 d7 d8 3c b5 d5 aa bc 91 98 ea 3c
       -0.028686935 0.026469976 -0.020853857 0.028637202
000100 bc 0b ad 3c fc d9 c1 bc cb 49 10 bc 91 b9 ee 38
       0.02112376 -0.023663513 -0.008806656 0.00011383289
000110 c1 a4 a9 bc b8 4f 58 3c 12 66 81 bc 6a 11 aa 3c
       -0.020708444 0.0132026 -0.015795741 0.020760257
000120 8c bf d9 bc ba 5b 05 bd 8b a9 5c 3c 7b 93 1d bc
       -0.026580594 -0.03255818 0.013468157 -0.009617682
000130 ae 2f 05 3d 20 3a 06 bd 20 e7 8b bc d2 c7 40 3c
       0.032516174 -0.032770276 -0.017077982 0.011766391
000140 d3 94 0b bd b7 e5 0a bd 4f 29 c0 bc a9 d9 de 3c
       -0.034077477 -0.03391048 -0.023457197 0.027203398
000150 8a a3 b5 3c 1a 92 8f bc bd af 83 bc 95 73 4c bb
       0.022172708 -0.017525721 -0.01607501 -0.0031196822
000160 4d 16 11 bd cb 6f cf bb 35 f7 f4 bc 8a 68 fa 3c
       -0.03542166 -0.0063304654 -0.029903034 0.030567426
000170 ee 55 ac 3b 5d d4 ef bb 77 b7 c1 ba 1a e7 b6 3b
       0.005259267 -0.007319017 -0.0014779408 0.0055817487
000180 cd 71 d7 3b 35 cf 3f 3c 5a d3 84 3c 8c 66 3e 3c
       0.0065748454 0.011707117 0.016214062 0.011621129
000190 db 47 4d bc 19 01 56 3c 20 f7 27 bc 04 d5 b5 bc
       -0.012529339 0.013061785 -0.01025179 -0.0221963
0001a0 ba 78 b9 3c 88 12 ce 3b 3c e2 c5 bb 3c f3 a7 bc
       0.022640575 0.00628883 -0.006038932 -0.020501725
0001b0 2a 03 cc 3b 5f 03 51 3b 10 c2 14 bd ea 9f 0a bc
       0.006225963 0.0031892878 -0.036317885 -0.008460978
0001c0 50 c7 58 3c 14 c5 91 3c bd d7 f0 3c 6b 3b 15 3d
       0.013231114 0.01779417 0.029399747 0.03643362
0001d0 49 fa 30 3c c8 67 a0 bc 41 22 bd bc 9d db 07 bc
       0.01080186 -0.019580737 -0.023087623 -0.008292106
0001e0 30 c9 18 bc 00 16 57 3c bd de 1c bc 73 65 07 bd
       -0.009325311 0.013127804 -0.009574589 -0.033055734
0001f0 15 b7 07 bd 34 6a c4 3c df ca 17 3d f3 0e fe 3c
       -0.033133585 0.023976423 0.037058707 0.031012988
000200 2c 3c 0a bd 13 44 45 3b 04 0a 4e bc ac 83 86 bc
       -0.03374879 0.003010039 -0.01257563 -0.016420208
000210 27 77 a9 bb 2f c8 11 3c e0 13 9d bc 28 b8 df 3c
       -0.005171675 0.008897825 -0.019174516 0.027309492
000220 0d 23 d7 3a 69 20 a2 bb ec 31 43 3c 26 86 cc 3b
       0.0016413644 -0.0049477112 0.011913758 0.0062415777
000230 2a 84 ab bc 2d b7 1e 3c 20 13 f0 bc 89 45 d5 3c
       -0.020937044 0.009687227 -0.029305995 0.026034134
000240 3e c6 c4 bc 34 01 dd 3c 8a 81 ce 3c a1 70 d5 3c
       -0.02402031 0.026978113 0.025208253 0.026054682
000250 d4 7b 01 bd f5 4a 83 3b 5f 09 f2 ba c4 b7 2b bc
       -0.031612232 0.0040067383 -0.0018465928 -0.010480825
000260 79 16 46 bc ce 7e b1 bb bd 00 ef bb 76 f6 89 3a
       -0.012090319 -0.0054167276 -0.007293789 0.0010525722
000270 94 ed 5f bc a4 62 55 bc b5 82 34 bd fb 30 f4 bc
       -0.013667483 -0.013024006 -0.044069964 -0.029808512
000280 d3 e8 27 3c 98 e3 d6 bc ea f2 13 3c 42 5a 20 ba
       0.010248381 -0.026231572 0.009030083 -0.0006116965
000290 b7 71 89 39 3e 48 cd bc 22 88 18 3d 32 41 a4 bc
       0.000262154 -0.025058862 0.0372392 -0.020050619
0002a0 70 cb a8 3c 16 df 61 b9 63 4d 00 bd b6 72 88 3b
       0.020604819 -0.00021540778 -0.0313238 0.0041640652
0002b0 c0 6a 0c bd 3d c7 43 3b 8e 4b f4 bc f8 86 e4 ba
       -0.034281492 0.0029873394 -0.029821184 -0.0017435243
0002c0 71 76 1d 3c 7b 13 09 3d 09 34 e2 3b 5f df ba bc
       0.009610758 0.033465844 0.0069031757 -0.02281159
0002d0 19 2b fc bc db 73 a3 3b 3a b2 d3 bb 0d 62 85 3c
       -0.03078227 0.0049881763 -0.0064604552 0.016282106
0002e0 16 d6 2b bc e3 c5 f6 3c 11 cb 04 3c 0b 6e 5d 39
       -0.010488054 0.030123657 0.008105055 0.00021117197
0002f0 28 55 16 bc 6a f7 a0 bc 21 70 f0 bc e1 27 05 bd
       -0.009175576 -0.019649226 -0.029350342 -0.032508735
000300 8b 3f ee 3c df a2 c4 bc 38 1d 11 bd d8 db d6 bc
       0.029083034 -0.024003444 -0.035428256 -0.026227877
000310 62 eb 5d bb 95 5d 0e 3d d8 a9 e3 bc ad 7d 0a 3d
       -0.0033862223 0.034757216 -0.027790949 0.03381126
000320 4d c8 be bc fe 7c c4 bc 81 5a ca bc 5f 56 66 ba
       -0.02328887 -0.023985382 -0.024701359 -0.0008786674
000330 7e f1 a0 3c b5 75 e3 bc 59 cd b5 bb 35 03 10 3b
       0.019646402 -0.027766088 -0.005548161 0.0021974568
000340 8b 2e 04 3d 86 2c 95 3c 98 6b 9e 3c a6 e6 99 3c
       0.03227095 0.018209707 0.019338414 0.01878674
000350 78 b3 02 bc b0 9b c4 bb c5 1f 33 bc fc 9f ea bc
       -0.007977359 -0.0060000047 -0.010932867 -0.02864074
000360 d5 1b 36 37 7f 3a 89 3b c4 1a 72 bc c6 42 ea 3c
       1.08545255e-05 0.0041878815 -0.014776889 0.028596293
000370 5d bd 8e bb 26 3a c1 3c 92 4a 17 3c 9a 99 ca bc
       -0.00435607 0.023587298 0.009234088 -0.024731446
000380 71 51 d3 bc 14 e8 c4 3b 1a e4 ac 3c 2a 71 f8 3c
       -0.02579567 0.006009111 0.021104861 0.030327398
000390 16 8f d0 bc f1 29 11 3b 19 24 cd bc d9 e8 10 bb
       -0.025458854 0.0022150243 -0.025041627 -0.0022111444
0003a0 77 ff 3f 3c f8 c9 8f bb 27 33 fd 3c 6b 94 08 3d
       0.011718622 -0.00438809 0.03090818 0.033344667
0003b0 d2 3c 8f 39 5f 06 e9 bc 2a 58 47 3c 47 73 90 bc
       0.000273204 -0.02844542 0.012167016 -0.017633094
0003c0 23 4b bb bc 60 33 74 bc 05 8e be bc 6b af 98 bb
       -0.022862976 -0.014904827 -0.02326108 -0.0046595833
0003d0 08 ed 93 3a ed 9a c7 bb 06 8d 90 3c 0a 6e 31 3b
       0.0011285851 -0.0060914666 0.01764537 0.0027073645
0003e0 d1 a5 b1 bc 50 b3 04 bb 95 8d 92 3b d9 8e 18 bc
       -0.021685513 -0.002024848 0.0044724443 -0.009311401
0003f0 2d ff b3 3b ac cb e9 bc d9 ff e1 bc 82 54 17 3d
       0.005493066 -0.028539501 -0.027587818 0.036945827

weight f4 [2, 768]
000000 a5 34 ca bc 04 e0 07 bd cd 0f b2 3c cb 5a 16 3d
       -0.024683306 -0.033172622 0.02173605 0.03670768
000010 68 71 0f 3b fd 0b 52 bc 49 28 cd 3c af 60 bb bc
       0.0021887664 -0.012820241 0.025043624 -0.02287325
000020 d6 56 a3 bc 78 df eb ba 03 ec 21 bb 68 7f 48 bc
       -0.019938868 -0.0017995676 -0.0024707324 -0.012237407
000030 4b e4 3f 3a cf 96 a1 bc 6d c3 86 3a f4 61 58 bc
       0.000732009 -0.019725231 0.001028163 -0.013206948
000040 e0 70 e5 bc 32 08 de bc ad 58 30 bc 5a c0 e1 bc
       -0.028007925 -0.027103517 -0.010763329 -0.02755754
000050 a9 84 99 3c b6 31 a1 bc 3e a9 84 3b d9 67 d6 3c
       0.018740015 -0.019677024 0.0040484956 0.026172565
000060 10 9a c2 bc ad 74 9c 3c a5 be 93 3c d3 c9 be 3c
       -0.023755103 0.019098604 0.018035242 0.023289597
000070 15 c7 cb 3c ae 32 93 3b 29 fb c4 3c 0b ba 71 b9
       0.024875203 0.0044921255 0.024045544 -0.00023052857
000080 01 d2 a3 3c f9 cf 9f 3c 53 81 00 3d 0c 90 69 3c
       0.019997599 0.019508349 0.031373333 0.014255535
000090 26 f2 ca bc e4 46 0f 3d 8e 88 d9 bb a4 a7 1e 3c
       -0.024773668 0.034979716 -0.006638593 0.009683523
0000a0 c9 3b 9f bc f6 ea fa bc 2c a9 72 bb 7f 5c 91 3c
       -0.019437687 -0.030629616 -0.0037027104 0.0177443
0000b0 0b 01 24 bd b1 5f be 3c 17 c7 a6 bc ab 87 15 3c
       -0.040040057 0.023238989 -0.020358605 0.009126584
0000c0 9d f3 f0 bc 84 73 50 3c f4 84 dd 3c 84 3e ca 3c
       -0.029413039 0.012722854 0.027040936 0.024688013
0000d0 ed 64 2b 3c 8d 03 20 3d 10 87 1b 3c 51 59 c4 bc
       0.010461074 0.039065886 0.009492651 -0.02396837
0000e0 b7 5c 66 3c e8 35 3f 3b 4e cc a8 3c 7a 01 83 bc
       0.014060191 0.0029176418 0.020605233 -0.015991915
0000f0 cd a2 35 3c 89 01 e1 bc 98 10 ac 3b 8a a7 fb 3b
       0.011086178 -0.027466552 0.0052510016 0.0076798843
000100 66 5f 08 3c fd 61 5b bc 0a 0d dd bc d9 a9 43 3a
       0.008323526 -0.013390061 -0.026983757 0.0007463969
000110 c0 dd ff 3c 9a ed 92 3a 36 01 b6 3c fa 20 ec 3b
       0.031233668 0.0011209727 0.022217374 0.0072060796
000120 37 ae d3 ba 97 c8 01 bc 76 59 a5 3c 03 ad e5 3b
       -0.0016149943 -0.0079213595 0.02018426 0.00700915
000130 7a 6b 95 bc 37 3f 91 3c f3 31 31 bd 9e 57 de bc
       -0.018239725 0.017730338 -0.043260526 -0.027141389
000140 86 6e df 3c 7a 39 d6 bc 84 95 b7 bc be 69 cc bc
       0.027274381 -0.026150454 -0.022410162 -0.024952766
000150 44 88 b1 3c 54 44 16 bc 13 3f ad 3b 13 1f 7e 3c
       0.021671422 -0.009171564 0.00528706 0.015510338
000160 d9 21 1f 3d 81 db fc bb e4 1d 86 3b d4 f2 f1 bc
       0.03885064 -0.0077165966 0.0040929187 -0.029534735
000170 f4 e8 b9 bc 98 3e d1 bc bf 1b f5 3c d4 7d e8 3c
       -0.022694089 -0.025542542 0.029920457 0.028380312
000180 8d 9e 93 3c a3 24 10 3c 61 84 40 3c 66 cf 14 3d
       0.018019939 0.008797797 0.011750312 0.036330603
000190 1e fd c6 3c a2 44 9b bc dc 66 e6 3c fa ca 17 bc
       0.024290618 -0.018953625 0.028125219 -0.009264702
0001a0 65 b5 03 3d ad 00 f6 bc a9 a0 43 ba 0c 95 8b 3c
       0.032155413 -0.03002962 -0.00074626 0.017038845
0001b0 a2 c0 f5 bc ef f2 e1 3b 5d 50 c0 bb e5 e0 c9 bb
       -0.029999081 0.006895415 -0.005868955 -0.0061608427
0001c0 4a ff ed 3c 43 d8 1b bd b9 67 70 bc b9 6a 81 3c
       0.029052395 -0.03804804 -0.014673167 0.01579796
0001d0 62 92 f3 bb 70 b3 57 bc 30 08 8c 3c 7d f8 2d bc
       -0.0074332217 -0.01316534 0.017093748 -0.010618326
0001e0 68 81 23 bd 79 2a c3 bb c8 3f 89 39 89 b7 04 3d
       -0.039918333 -0.005955991 0.00026178197 0.032401595
0001f0 8c da e9 3c ca 86 6b 3b 07 c2 00 3d 33 08 00 bd
       0.028546594 0.0035938495 0.03143504 -0.03125782
000200 93 db b0 3b a6 7e 0a 3d 0b 18 32 3c fa 30 66 bb
       0.005397269 0.033812188 0.01086999 -0.0035124407
000210 a0 2b 24 3c 5d 43 a0 bc 92 36 33 bd 4f ea ea bc
       0.010020167 -0.019563371 -0.043753214 -0.02867618
000220 9f d9 5b 3c 99 00 ea 3c 29 58 8b bc 25 d7 f7 bc
       0.013418584 0.028564738 -0.017009811 -0.030253956
000230 65 9c f6 3c 91 4a 23 3c 93 6a c7 3c 6b bf 8b bc
       0.030103872 0.0099665085 0.02434281 -0.017059049
000240 10 70 1c 3d b0 ef f1 bb 0a f3 1a 3c bb 7d c9 3c
       0.03819281 -0.0073833093 0.009457359 0.024596086
000250 d3 59 be 3c 58 e1 d0 3c bb 48 b7 bc 98 4c 00 bd
       0.02323619 0.025498077 -0.022373548 -0.031323045
000260 8f 2a ff bc 65 6e 4a bc 2c bc ce 3c 58 5f cc bc
       -0.031148223 -0.012355422 0.025236212 -0.024947807
000270 ec da 10 3d 3f 7e 14 3d 93 66 39 3b 6a 3c 73 bc
       0.03536503 0.03625321 0.0028289899 -0.014845947
000280 d0 07 78 ba 0c 4e 5a 3d fb b6 ea 3b f7 48 a7 bc
       -0.00094616134 0.053297088 0.0071629263 -0.020420535
000290 63 2f e5 bc af 65 0c 3d 83 76 75 bc 65 f3 d0 3c
       -0.027976697 0.03427666 -0.014981869 0.025506685
0002a0 30 af 61 3c e9 3e 88 bb 1f a8 dc 3c 65 7f 17 3c
       0.013774678 -0.00415789 0.026935635 0.009246682
0002b0 31 f9 82 bb d0 22 fb 3c 8a af 94 3b 3c 3c 0e 3d
       -0.003996991 0.030656248 0.0045375274 0.034725413
0002c0 42 02 7a 3c 78 28 a9 bc 86 46 1c 3c d0 0f bf 3c
       0.015259327 -0.02064918 0.0095382985 0.02332297
0002d0 ee 50 94 3b 2a de 1b bd 47 29 f0 bc 89 90 dc 3c
       0.004526249 -0.03805367 -0.029316558 0.026924388
0002e0 e3 1f 23 3d 08 48 ce 3c a2 32 08 bd b9 6a 82 3b
       0.03982533 0.025180832 -0.033251412 0.0039800075
0002f0 bf 00 e1 bc af bf 76 bc 29 35 40 3c bb 0d f1 3c
       -0.027466176 -0.015060349 0.011731424 0.029425493
000300 26 1b d6 3b bb 55 9d bb 44 a1 30 3c c8 f2 79 3c
       0.006533998 -0.0048014796 0.010780636 0.0152556375
000310 3e 54 22 bc 37 08 8e 3c 6c f6 04 bd e8 27 1a 3d
       -0.00990778 0.017337902 -0.03246157 0.037635714
000320 d5 9c 27 3c 35 38 8b bc c0 e7 01 bd 61 a0 14 bd
       0.010230263 -0.016994575 -0.031715155 -0.03628576
000330 83 97 04 bd ef 7d 8d bc 69 1a 16 bd 05 48 12 3c
       -0.032371055 -0.017271964 -0.03664628 0.008928304
000340 c6 0d e8 3c 9c 09 10 ba 30 e1 61 bc f2 c4 df 3c
       0.02832688 -0.0005494596 -0.013786599 0.02731559
000350 71 e4 d7 bc f5 d4 53 3c 13 97 dd 3b 1e 9d f5 bc
       -0.026354047 0.012929191 0.006762394 -0.029982146
000360 18 85 de 3c 31 b4 de ba eb 7f 3a 3c fe 76 74 3b
       0.027163073 -0.0016990957 0.011383037 0.003730237
000370 7f 7a e9 bb 03 da 29 3c d6 e2 63 3a 3b be 8f 3c
       -0.0071251984 0.010366919 0.0008693164 0.017546764
000380 c6 fe b6 3c 2a df 96 3b f2 53 cf bc cb 87 ff bb
       0.022338282 0.00460424 -0.025308583 -0.00779817
000390 c8 45 20 3d e6 5c 91 3c 6c 98 9b 3c cb 22 d8 3b
       0.03912905 0.017744493 0.018993579 0.0065959445
0003a0 5e 93 0c 3d af 70 9f 3a 8a d2 cb bc 1f 5b cd bc
       0.034320228 0.001216432 -0.024880666 -0.025067864
0003b0 d5 22 b2 bc 21 a9 c5 3c a0 9c 0e bb e1 f4 04 3d
       -0.021745125 0.024128499 -0.0021760836 0.032460097
0003c0 aa fb a9 3c 41 96 22 bd d7 6c c1 bc bb 8b ca bc
       0.020749886 -0.039694075 -0.02361147 -0.024724832
0003d0 4b 35 5c 3b 19 d0 06 3d 65 ee 38 bc 68 e1 87 bb
       0.00336011 0.0329133 -0.011287306 -0.0041467436
0003e0 3e 4d 10 3d c2 ce be bc b3 2e 74 bc b0 84 10 3c
       0.035229914 -0.02329195 -0.014903712 0.008820698
0003f0 47 c9 19 bd 4f 0d ee 3c 3e 75 03 bd 43 fe 97 bc
       -0.03754547 0.02905908 -0.032094233 -0.018553859

bias f4 [2]
000000 df e1 8a 3c 32 31 54 bc
       0.016953407 -0.012951182
