results/runs/modernbert_o2_third/head_score.pt (torch, 4989 bytes, 1 tensors)

weight f4 [1, 768]
0	0x3a69d186	0.0008919466
1	0x3b9f11ef	0.004854433
2	0x3c75beb6	0.014999082
3	0x3b5098e8	0.003182942
4	0x3c3ed570	0.011647567
5	0xbba0aa6a	-0.0049031274
6	0xbba6ba11	-0.005088099
7	0xbbf70e49	-0.0075395447
8	0xbc88daa6	-0.016705822
9	0xbc135ecd	-0.00899477
10	0xba5aa1c1	-0.0008340143
11	0xbc303c99	-0.010756635
12	0x3cc19eba	0.023635257
13	0x3bebf981	0.007201374
14	0x3c0c9f6d	0.008582932
15	0xbcbd259f	-0.023089228
16	0x3b655bfa	0.003499745
17	0x3a7a2ce7	0.0009543434
18	0x3a8a572d	0.0010554545
19	0x3b791606	0.0038007512
20	0x3ba99dc4	0.005176278
21	0xbc898017	-0.01678471
22	0xbcccbc0a	-0.024992008
23	0xbc17206f	-0.009224041
24	0x3cb11e08	0.021620765
25	0x3c498e58	0.012302004
26	0x3ce40294	0.02783326
27	0xba44dda1	-0.0007509832
28	0x3c61faf5	0.013792743
29	0x3c2841f8	0.010269634
30	0x3ba2a062	0.004962967
31	0x3c3dfb40	0.011595547
32	0x3b96b25b	0.0045988983
33	0x3ca96d0b	0.020681879
34	0xbbe5cacf	-0.007012702
35	0xbbe87718	-0.007094275
36	0x3ca6debd	0.020369882
37	0xbbb65b62	-0.005565093
38	0xbbdd8f8a	-0.006761496
39	0xbc38e570	-0.011285171
40	0x3cd504fc	0.026003353
41	0xbc81ed49	-0.015860217
42	0x3aa36209	0.001246513
43	0xbb991131	-0.004671239
44	0xbbd1438c	-0.006386226
45	0xbc726e3d	-0.014796791
46	0xbc5b403d	-0.013382015
47	0x3cb1fa74	0.02172587
48	0xbc2353e2	-0.00996873
49	0xbbc5d4cd	-0.0060373307
50	0x3a04907a	0.0005056929
51	0x3b87b817	0.0041418183
52	0x3c2d2927	0.0105688935
53	0x3bf13022	0.007360474
54	0x3c1a6578	0.009423606
55	0x3c5642db	0.013077463
56	0xbb37bc9f	-0.002803601
57	0x3afb8184	0.0019188379
58	0xbac8b120	-0.0015311576
59	0x3b9e5751	0.0048321863
60	0xbc1c68b9	-0.009546452
61	0xbcb1807f	-0.021667717
62	0xbc71e385	-0.014763718
63	0x3c48b138	0.0122492835
64	0x3c3557a3	0.0110682575
65	0xbbc9b66b	-0.006155779
66	0x3c03a978	0.00803601
67	0x3c263f87	0.010146982
68	0xbb812c20	-0.0039420277
69	0xbc257675	-0.010099043
70	0x3caf0582	0.021364931
71	0x3b110d10	0.002213303
72	0xbbe2d330	-0.006922148
73	0xba12cd59	-0.0005600057
74	0x3c27a38d	0.010231865
75	0xbbddb528	-0.0067659803
76	0x3c0fd08d	0.00877775
77	0x3c393fe0	0.011306733
78	0x3bc01221	0.005861536
79	0xbc2a36e5	-0.010389064
80	0x3c393fae	0.011306686
81	0xbcd100d2	-0.025513086
82	0xbc83b801	-0.01607895
83	0x3c3418cb	0.010992239
84	0x3c61bcfe	0.013777969
85	0xbbc99292	-0.0061515057
86	0xbb93ba11	-0.004508265
87	0xbbe75102	-0.0070592174
88	0x3c03b784	0.008039359
89	0xbbedb5ba	-0.0072543295
90	0xbb89bc90	-0.0042033866
91	0x3b3266ed	0.0027221993
92	0x3c29fd2d	0.010375303
93	0xbc17d300	-0.009266615
94	0xbca6aac6	-0.020345103
95	0xbc17889f	-0.009248882
96	0x3c855802	0.016277317
97	0x3ba60624	0.00506665
98	0x3ca10b82	0.019658808
99	0xbb11d481	-0.0022251906
100	0xbbfa1a84	-0.0076325554
101	0x3c13a4bb	0.009011443
102	0xbba5eab3	-0.0050633787
103	0x3c77fbed	0.015135747
104	0xba96e951	-0.0011513626
105	0xbc0ed7d8	-0.008718453
106	0x3814e6a1	3.550074e-05
107	0x3b38bc6d	0.0028188482
108	0x3bf97941	0.0076133315
109	0x3a5ef309	0.0008504843
110	0x3b1c06c0	0.0023807734
111	0xbbb7d59e	-0.005610182
112	0xbc214b64	-0.009844635
113	0x3a1077de	0.00055110257
114	0xbcbaf30d	-0.022820974
115	0x3c106411	0.00881292
116	0x3b62662f	0.003454577
117	0xbc97b337	-0.018518073
118	0xbc1c44b5	-0.009537865
119	0xbc44c227	-0.01200918
120	0x3be80236	0.0070803417
121	0xbc7138e9	-0.014723041
122	0x3c82b749	0.015956538
123	0xbc7d1fc8	-0.015449472
124	0xb8c2c51e	-9.287357e-05
125	0xbc967367	-0.018365575
126	0xbb5997eb	-0.0033202122
127	0x3be6314a	0.0070249187
128	0x3c5d6e6c	0.013515096
129	0x3c44de48	0.012015887
130	0xbbb025e0	-0.005375609
131	0xbc3f01a4	-0.011658106
132	0x3c6640a4	0.014053497
133	0xbc94a10a	-0.018143196
134	0xbcdaf873	-0.026729798
135	0x3ca2bdc3	0.019865876
136	0xba4eb038	-0.0007884535
137	0xbc784966	-0.015154218
138	0xbc7a62d4	-0.0152823515
139	0x3beca90f	0.007222302
140	0x3b55e0f4	0.0032635303
141	0x39b04b59	0.00033625474
142	0xbcb8b14c	-0.02254548
143	0xbb8b606e	-0.0042534387
144	0x3c3d3d26	0.011550223
145	0xbca47c89	-0.020078914
146	0xbbd1d1c7	-0.0064031812
147	0x3c943e2a	0.018096048
148	0x3bbd5483	0.005777897
149	0x3c3f0e8d	0.011661184
150	0xbc0a7954	-0.008451778
151	0xb9fed85a	-0.0004860785
152	0x3cc7aa73	0.024373269
153	0xbcca60dc	-0.02470439
154	0x3a7d6fef	0.00096678635
155	0xb9c12375	-0.00036838246
156	0x3c24b66b	0.010053257
157	0x3af1a18f	0.0018434989
158	0xbc4499dc	-0.011999574
159	0x3b24bedf	0.0025138182
160	0x3b61c2cb	0.003444838
161	0x3c1b4c82	0.00947869
162	0x3964cf8f	0.00021821096
163	0x3c0e5b48	0.008688755
164	0x3ab40410	0.0013734121
165	0x39b68f48	0.00034820498
166	0x3c8844e0	0.016634405
167	0xbb9215c1	-0.0044581597
168	0xbbdfa4c9	-0.006825064
169	0x3c35ff22	0.011108192
170	0x3c548ef9	0.01297354
171	0x3d00a27a	0.03140495
172	0x3b4feb71	0.0031726027
173	0xbbc0f922	-0.005889074
174	0x3be4319a	0.006963921
175	0x3c117f67	0.008880473
176	0x3bfa5bc8	0.0076403357
177	0x3ad2b34f	0.0016075167
178	0xbaf9966b	-0.001904202
179	0xbae2d0ba	-0.0017304637
180	0xbbc30a4b	-0.0059521548
181	0x3ae6135c	0.0017553377
182	0x3c7e958a	0.015538583
183	0xba9753f6	-0.0011545408
184	0xbc2d7fe5	-0.010589574
185	0xbb87634a	-0.004131709
186	0x3a9e5bfc	0.0012081857
187	0xbc872a02	-0.016499523
188	0x3c9056f7	0.017619593
189	0xbba58078	-0.005050715
190	0x39236fcc	0.00015586539
191	0xbcd91dbd	-0.026503438
192	0xbbcbbc9b	-0.006217552
193	0xbc9d8f35	-0.019233325
194	0x3c3d1f4f	0.011543109
195	0xbc0cab68	-0.008585788
196	0x3bad5fd9	0.005290967
197	0xbb1827a2	-0.0023216982
198	0xbc3caee4	-0.011516307
199	0x3c65336a	0.013989309
200	0xbb8f6f56	-0.004377286
201	0x3bd041a0	0.0063554794
202	0x3bfac29a	0.007652593
203	0x3c5c2c26	0.01343826
204	0xbbb071b9	-0.0053846505
205	0xbc2c9412	-0.01053335
206	0x3ba802fc	0.005127309
207	0xbb4bb69f	-0.0031084192
208	0x3bd04786	0.0063561825
209	0x3b57a01a	0.0032901824
210	0xbb65ad10	-0.003504578
211	0x3b84197b	0.004031358
212	0x3b7eeb55	0.0038897593
213	0xbacee97b	-0.0015786135
214	0xbad5e527	-0.0016318903
215	0xbc73a5bb	-0.014871056
216	0xbc01a5c7	-0.00791306
217	0xbb7b96f6	-0.003838954
218	0x3b88a225	0.0041697198
219	0xbc341e02	-0.010993483
220	0xbc058d8f	-0.008151426
221	0xbb72f978	-0.0037074964
222	0xb9c83518	-0.0003818653
223	0xbbdadaf0	-0.0066789314
224	0xbbc9092c	-0.0061351266
225	0x3c5722eb	0.013130884
226	0xbc8625b3	-0.016375398
227	0xbab53699	-0.0013825475
228	0x3c6d0d79	0.014468544
229	0xbb873eb3	-0.0041273474
230	0xbb468599	-0.0030292033
231	0xbb22e568	-0.0024855975
232	0xba93b0bb	-0.001126788
233	0xbbe3562c	-0.0069377627
234	0x3c0de5aa	0.008660713
235	0xbc020a1c	-0.007936981
236	0xbca65f4f	-0.020309119
237	0x3c51b7e5	0.0128001915
238	0xbc7d353c	-0.015454587
239	0xbbce346a	-0.0062928693
240	0xbc3a3f63	-0.011367652
241	0x3afe1a65	0.0019386528
242	0x3c011a3a	0.007879788
243	0xb986695b	-0.00025636968
244	0xbc574213	-0.013138312
245	0xbb44c726	-0.0030025928
246	0xbb1c913f	-0.0023890284
247	0x3b29b2dc	0.0025893962
248	0xbbf1c41c	-0.0073781144
249	0x3bf26e43	0.007398398
250	0xbba82933	-0.0051318645
251	0x3c00c05f	0.007858365
252	0x3befb734	0.0073155407
253	0x3c842152	0.01612917
254	0xbba2131a	-0.0049461247
255	0x3bcb98e9	0.0062132967
