results/runs/modernbert_o2_second/last_checkpoint/head_score.pt (torch, 4989 bytes, 1 tensors)

weight f4 [1, 768]
-0.038246166 -0.0072114323 0.013119382 -0.009190978 -0.003203541 0.021021817 -0.013565526 0.020510597
-0.018083302 -0.021203702 -0.004363336 -0.014877577 0.007584729 -0.0026990536 0.024165481 -0.010520154
-0.0028665944 -0.017167801 0.022347113 0.005018195 0.025876757 0.004444574 -0.017030917 -0.029129028
-0.0109605845 0.0036859815 -0.0024072644 -0.0067406823 -0.016308993 -0.016936498 0.020599134 -0.0071962303
0.0032529824 0.0288726 -0.0104807615 0.007003927 -0.024099376 0.023063025 0.010724411 -0.008408669
0.0043460308 0.016102001 -0.015695423 -0.0028572788 0.010315775 -0.026015028 -0.030886425 -0.0011344
-0.014714327 0.029242001 0.010826801 0.033715934 -0.0019665791 -0.00063936866 -0.004939275 0.015937077
0.013296326 0.0082485145 0.01991013 -0.022367673 -0.027097685 0.0046610637 -0.0045494842 -0.0059107835
0.007355222 0.013390827 0.012716261 0.011427533 -0.0029494383 -0.0041635074 -0.0103031285 -0.022254704
0.0035797425 -0.008058928 0.0071114004 0.009123899 -0.033895932 -0.0020830256 0.012179506 0.03408329
0.027370505 -0.002562138 -0.010716921 -0.008675276 -0.019121699 -0.023874462 -0.0006329159 0.010276344
-0.013852064 0.014154305 0.0020074863 0.011053418 -0.03161903 0.013559316 0.004508388 -0.0043362896
-0.004251026 0.013531301 -0.006040531 -0.00012222717 0.0059515545 0.028989827 0.032558862 -0.018105611
-0.0011796859 0.0076211155 0.010147848 -0.005526013 0.012471433 0.011573445 -0.0031468563 -0.02046337
0.019340582 0.0069529703 -0.00187047 -0.01844501 -0.020209825 0.0240442 -0.003435295 0.007102306
-0.004014024 -0.030083945 0.031577278 -0.03654041 0.0042748568 -0.04324934 0.01645139 -0.014057326
-0.01248642 0.009001948 0.009168312 0.011449142 0.027160235 -0.014588681 0.011778298 -0.021919249
-0.017474364 -0.004244657 -0.020019773 0.016949354 -0.00050092966 -0.0032196331 0.01274437 0.018271696
0.020656785 -0.015551107 -0.0027785718 -0.01157684 0.0067224554 -0.01657596 0.0021774445 -0.009743644
0.0069549046 -0.022158846 -0.016174667 0.009953877 -0.013065869 -0.02298248 -0.0061145816 0.0050604674
-0.009415195 0.0098749325 -0.0019670117 -0.020981345 0.0082065035 0.021774936 -0.021572055 -0.015597203
0.015866756 -0.03229348 -0.009018175 0.0153548615 0.01788365 -0.005610054 0.032163 0.018281924
-0.01681317 0.015882112 0.014611203 0.005472155 -0.012756217 -0.021823958 0.00570442 0.014787405
-0.026099348 -0.02442565 -0.03840778 0.006596729 -0.01797252 0.0038640464 0.0020938234 0.022530511
0.00026936491 -0.036274772 -0.0112673845 -0.0021869205 -0.010216551 -0.04136052 0.039062604 -0.0014626205
0.015498109 -0.002941764 -0.01820546 0.0009449014 -0.011880452 -0.008434801 -0.0017258317 -0.013132308
-0.022599906 0.020040471 0.010258665 -0.006965191 0.027639072 0.0062176124 -0.009439962 -0.02486849
-0.0022489445 -0.010416449 0.015557069 0.0011320447 0.020141866 -0.014645648 -0.0024028434 0.00394169
0.01267232 0.0055615297 0.017577171 -0.011427885 0.0007041521 -0.0146476645 -0.012753325 8.132064e-06
0.0019820367 -0.006196529 -0.0027432272 -0.0045443373 -0.0024501353 -0.008115497 -0.018096214 0.024958305
-0.024704715 -0.022756487 0.013501812 0.0136085525 0.008264549 0.01091563 0.024542019 0.0034627358
-0.0066105323 0.018246872 0.010540282 -0.0073051266 -0.02135455 0.0117835 0.0099946465 0.010580205
00000000: 03a8 1cbd e14d ecbb adf2 563c c195 16bc
00000010: 80f2 51bb f235 ac3c f141 5ebc d705 a83c
00000020: 6f23 94bc 63b3 adbc 51fa 8ebb 15c1 73bc
00000030: 5289 f83b 9be2 30bb b0f6 c53c b95c 2cbc
00000040: 79dd 3bbb 7da3 8cbc 4b11 b73c ac6f a43b
00000050: 7efb d33c caa3 913b 6c84 8bbc 00a0 eebc
00000060: 0694 33bc 8290 713b 32c3 1dbb f1e0 dcbb
00000070: 709a 85bc 69be 8abc 84bf a83c 5bce ebbb
00000080: fd2f 553b 3b86 ec3c 80b7 2bbc 3381 e53b
00000090: 0e6c c5bc abee bc3c 71b5 2f3c 84c4 09bc
000000a0: 2669 8e3b 58e8 833c b093 80bc 2f41 3bbb
000000b0: 7f03 293c 781d d5bc 8705 fdbc 26b0 94ba
000000c0: 5c14 71bc ec8c ef3c e562 313c b819 0a3d
000000d0: b9e1 00bb 4e9b 27ba a4d9 a1bb 798e 823c
000000e0: d5d8 593c c724 073c 921a a33c 693c b7bc
000000f0: f7fb ddbc d6bb 983b d713 95bb 3faf c1bb
00000100: 1304 f13b 3365 5b3c dd57 503c 8c3a 3b3c
00000110: 5d4b 41bb 086e 88bb 74ce 28bc 7f4f b6bc
00000120: 1d9a 6a3b 9809 04bc c006 e93b 687c 153c
00000130: 76d6 0abd 5f83 08bb 8d8c 473c eb9a 0b3d
00000140: 1c38 e03c 8be9 27bb 0696 2fbc bf22 0ebc
00000150: 1ca5 9cbc 6094 c3bc 44ea 25ba 1c5e 283c
00000160: c4f3 62bc 75e7 673c 0890 033b 6519 353c
00000170: f582 01bd e527 5e3c 1abb 933b 6f17 8ebb
00000180: 314c 8bbb 64b2 5d3c a6ef c5bb 1b2a 00b9
00000190: 4205 c33b 137c ed3c 715c 053d 3852 94bc
000001a0: b19f 9aba 8dba f93b 2943 263c 8f13 b5bb
000001b0: fb54 4c3c 8c9e 3d3c 7d3b 4ebb cca2 a7bc
000001c0: 2470 9e3c bed5 e33b 8f2a f5ba fd19 97bc
000001d0: 138f a5bc 58f8 c43c b022 61bb 76ba e83b
000001e0: 1388 83bb 9b72 f6bc 2d57 013d 66ab 15bd
000001f0: 1914 8c3b 3826 31bd 11c5 863c b350 66bc
00000200: d793 4cbc e87c 133c b036 163c 2f95 3b3c
00000210: 247f de3c 5d05 6fbc c3f9 403c ff8f b3bc
00000220: 6626 8fbc c316 8bbb 8200 a4bc 5fd9 8a3c
00000230: d250 03ba 7b00 53bb c3cd 503c 86ae 953c
00000240: 6b38 a93c 12ca 7ebc b318 36bb c9ac 3dbc
00000250: 0b48 dc3b 4fca 87bc 75b3 0e3b cea3 1fbc
00000260: f8e5 e33b 7886 b5bc bc80 84bc 9615 233c
00000270: 3a12 56bc c145 bcbc d45c c8bb 47d2 a53b
00000280: 3142 1abc 78ca 213c fbe8 00bb 12e1 abbc
00000290: 9274 063c 5a61 b23c e1b7 b0bc 698b 7fbc
000002a0: 00fb 813c 2b46 04bd f8c0 13bc f592 7b3c
000002b0: bb80 923c 8bd4 b7bb 5abd 033d f9c3 953c
000002c0: c6bb 89bc 341b 823c d463 6f3c c34f b33b
000002d0: 74ff 50bc 28c8 b2bc 25ec ba3b df46 723c
000002e0: 4dce d5bc 4d18 c8bc 7a51 1dbd 6029 d83b
000002f0: 1b3b 93bc f13b 7d3b 8738 093b e891 b83c
00000300: 8c39 8d39 db94 14bd d69a 38bc 7052 0fbb
00000310: 5263 27bc a669 29bd 1c00 203d 66b5 bfba
00000320: c8eb 7d3c 9cca 40bb 9e23 95bc 42b3 773a
00000330: 3aa6 42bc 1f32 0abc 4d35 e2ba e428 57bc
00000340: 7023 b9bc ea2b a43c f613 283c 423c e4bb
00000350: 566b e23c 1dbd cb3b 12aa 1abc 01b9 cbbc
00000360: 0763 13bb c1a9 2abc 14e3 7e3c 1e61 943a
00000370: 8e00 a53c 4df4 6fbc 0679 1dbb 4b29 813b
00000380: 909f 4f3c 7e3d b63b 00fe 8f3c 063c 3bbc
00000390: d996 383a c2fc 6fbc 52f3 50bc f36e 0837
000003a0: 0fe5 013b 410c cbbb b7c7 33bb aae8 94bb
000003b0: 7392 20bb ddf6 04bc 833e 94bc 5c75 cc3c
000003c0: 8b61 cabc d06b babc b436 5d3c 68f6 5e3c
000003d0: 0868 073c 78d7 323c 580c c93c 11ef 623b
000003e0: 2a9d d8bb 777a 953c 26b1 2c3c d85f efbb
000003f0: bdef aebc 950f 413c 96c0 233c 9958 2d3c
