bert/ablation/modernbert_o2_ablation_all/last_checkpoint/head_score.pt (torch, 4989 bytes, 1 tensors)

weight f4 [1, 768]
000000 95 2a eb bc 71 61 2a bb e0 cd 5e 3b 41 ad 2a 3b
       -0.028706828 -0.002599802 0.0033997223 0.0026043209
000010 7a e3 4c bc a8 74 03 3c 26 bc fe bb 61 f4 e4 3b
       -0.0125054065 0.0080234185 -0.007773894 0.00698714
000020 71 27 ef bb 7b f1 bb bb 7a e8 b3 bb 9a 42 2d 3a
       -0.007298403 -0.005735574 -0.00549036 0.00066093507
000030 26 ea a3 3b bb 3f f7 3a 43 50 8f 3b b5 ac ac bb
       0.005002278 0.0018863598 0.0043735816 -0.0052696117
000040 12 c1 2e bc 8b a4 98 bc 4f 66 67 3c c1 a0 07 3b
       -0.010666149 -0.018633148 0.014123513 0.0020695182
000050 5d 29 b5 3b 66 80 9c bb 6d 75 4d bc df eb 07 bc
       0.0055286125 -0.0047760485 -0.0125402035 -0.008295982
000060 71 25 a6 bb 95 65 85 3b 86 0a 52 bc 62 ed 3f 3c
       -0.0050703813 0.0040709474 -0.012819892 0.011714311
000070 9b 2e 28 bb 92 6f aa bc 97 14 ed 3a 71 b6 14 bb
       -0.0025662545 -0.020805154 0.0018087801 -0.0022691751
000080 93 9e a3 39 ab 01 be 3c ae 3c 1b bb 50 d1 1d 3c
       0.0003120793 0.023194155 -0.002368729 0.0096324235
000090 7b f3 6b 3b 48 9d 31 3c 84 6b 0c 3c e2 49 3c bc
       0.003600328 0.010840721 0.008570556 -0.011492224
0000a0 87 b1 9c ba bc 6c 4a 3c 22 58 bb bb 8d 03 ac ba
       -0.0011954763 0.012355026 -0.0057172934 -0.0013123617
0000b0 f9 46 0e bb 05 7c bc bc 8f d3 89 bc fd 6e 27 bc
       -0.0021709783 -0.023008356 -0.016824512 -0.010219333
0000c0 6d e9 43 3b 9f 7c 45 3c e9 fe 0d bb 8d 2d 9a 3c
       0.0029893771 0.012053638 -0.002166683 0.018820548
0000d0 92 b1 70 bc c6 34 af 3b fc 24 1d bc ed f5 f0 ba
       -0.014690774 0.0053468673 -0.009591337 -0.0018383838
0000e0 2d 01 32 bb a8 e5 da 37 a3 6c 64 3c 74 3f fe 39
       -0.0027161345 2.6094567e-05 0.013941917 0.00048493932
0000f0 56 3a 11 bb 1d 98 2b 3c 70 a5 13 3b 47 f7 97 bb
       -0.0022160015 0.010473278 0.0022529028 -0.004637632
000100 06 65 ce bb c0 eb 6a 3b 45 60 d3 3b 57 d5 22 3c
       -0.006298664 0.0035846084 0.006450685 0.0099385595
000110 c1 da f3 ba 44 a9 df bb 89 36 46 bc c2 fb c0 bb
       -0.0018604622 -0.006825598 -0.012097963 -0.005889387
000120 fe 38 c0 bb 68 8d 1e bc 1f 4b 64 3b 41 27 4d ba
       -0.005866169 -0.009677269 0.0034834815 -0.00078259787
000130 b5 45 43 bc 7d c5 bb bb 2b 4f de 3b b8 e9 a8 3c
       -0.011918475 -0.0057303295 0.00678434 0.020619258
000140 19 ba 20 3c db a1 9f 3a 7a f7 50 bc 9a 6a e0 ba
       0.009809994 0.0012178974 -0.0127543155 -0.0017121613
000150 bf e7 27 bc f1 9e 24 bc b1 14 8b 3b e7 a4 d2 3b
       -0.010248124 -0.01004766 0.00424441 0.0064283493
000160 e9 73 c6 bb c9 ec 21 bb dd 2d 68 bc 54 4a 22 3b
       -0.006056298 -0.0024707785 -0.014171091 0.0024763541
000170 cb 95 26 bc e1 93 8f 3c 1f 43 52 bb 92 25 17 3c
       -0.010167549 0.017526569 -0.0032083464 0.009225266
000180 f4 48 99 bc 47 21 2d bb 71 25 62 3a 19 5a 5b 3b
       -0.018711545 -0.002641754 0.0008626795 0.003347045
000190 88 17 55 3b f9 0c f7 3b c2 12 05 3c 93 8d 97 bc
       0.0032515246 0.0075393883 0.008122148 -0.018500125
0001a0 88 b8 63 bc 24 6d 22 3b 72 d5 62 3c f0 1e 77 bc
       -0.013898976 0.002478429 0.013844835 -0.01508306
0001b0 c3 b7 38 3b 3e cf e3 3b bf 71 6b 3b 9a 5c a2 bc
       0.0028185702 0.0069521954 0.0035925952 -0.019819546
0001c0 b5 75 88 3c 79 82 a7 ba 1d e7 5f bb 13 7d a9 bc
       0.01665769 -0.0012779973 -0.0034164854 -0.020689523
0001d0 b6 3f f0 bb 89 0b 65 3c 19 fd 03 3c e5 63 f2 3b
       -0.0073318137 0.013979801 0.008055949 0.0073971623
0001e0 c8 bb b7 bb bc 76 b6 bb 89 09 31 3c de 64 a3 bc
       -0.005607102 -0.0055683535 0.010805496 -0.019945558
0001f0 4f 54 07 3c 12 15 92 bc 3b e8 30 3b bc 87 0c ba
       0.008259847 -0.017832313 0.002699389 -0.0005360802
000200 9c cd 40 3b 9c d8 1b 3b f2 4b a9 bb 8e 23 fc 3b
       0.0029419428 0.0023780232 -0.005166524 0.007694668
000210 d4 46 3e ba 19 23 21 ba d5 cd 67 3c f3 8a b9 bc
       -0.0007258479 -0.00061468926 0.014148195 -0.022649264
000220 e5 d0 09 bc a9 cb 65 bb cb f8 4f bc b5 15 e9 3b
       -0.008411621 -0.0035064018 -0.012693594 0.0071131834
000230 c8 f5 2d 3a 95 a0 11 3b 55 7f e5 3a 22 f2 88 3b
       0.00066360505 0.0022220958 0.0017509261 0.004179255
000240 5a 79 70 b9 30 21 c6 ba 55 ab 4b bb a1 c7 fd bb
       -0.0002293339 -0.0015116092 -0.0031077464 -0.007744745
000250 fc cc 4f bb 95 87 05 bc 42 8c 1c bc c4 ce b3 bb
       -0.0031707874 -0.008150001 -0.009554924 -0.005487295
000260 b6 86 36 bb d2 c8 72 bc 5f 43 83 bb 40 df 9a 3b
       -0.002785129 -0.014818387 -0.004005834 0.0047263205
000270 af c8 82 3b 76 87 67 bb 86 f8 24 3b bb af 5a 3a
       0.0039912085 -0.0035328544 0.0025172546 0.0008342226
000280 c2 24 08 39 9d 57 99 3b 55 7a a5 bb b5 ab 8a bc
       0.00012983664 0.004679634 -0.0050499835 -0.01692758
000290 1b 20 9d 3b a0 3d 97 3b 0d 3f 50 bc 0e a3 e3 3a
       0.004795087 0.0046155006 -0.012710345 0.001736732
0002a0 78 33 53 3c b5 8a b8 bc 6f 86 4c 3a 9c 45 62 3c
       0.012890689 -0.022527078 0.00078020146 0.0138105415
0002b0 c6 51 de 3b 9f 8f bb bb 28 53 34 3c 9e dd 7e 3b
       0.0067846505 -0.005723908 0.011006154 0.0038889418
0002c0 68 3a af bc 91 7a 18 3b 2f 67 e7 ba 91 73 2f bb
       -0.021390155 0.0023266415 -0.0017654652 -0.0026771764
0002d0 80 27 f0 bb 4c 02 03 bc dc 89 9f ba ad 9d 03 3c
       -0.0073289275 -0.007996153 -0.0012171823 0.008033198
0002e0 76 d4 02 bc 1d f2 11 bc ce 67 c9 bc af ba 65 ba
       -0.007985225 -0.008907822 -0.02458563 -0.0008763475
0002f0 47 2e 9d bc ce 2d a4 ba 54 22 c6 3b 83 8f 27 3c
       -0.019187106 -0.0012525858 0.0060465727 0.010227087
000300 5f 35 18 3b 10 4e c4 bc 79 dc 91 bb 24 d1 b5 b9
       0.002322517 -0.023963004 -0.004451331 -0.00034678832
000310 bd 12 c8 3a ef 96 9f bc 02 4c 16 3c 63 64 fe 3a
       0.0015264374 -0.01948115 0.009173395 0.001940858
000320 14 3d a8 3b a8 a3 81 ba e2 7c 8e bc 1d 96 a4 bb
       0.005134234 -0.0009890692 -0.017393533 -0.0050227777
000330 fa bd e9 3a bc 77 4e bc d8 03 f7 ba af a2 af bb
       0.0017833107 -0.012601789 -0.001884575 -0.0053599696
000340 a2 ea f3 bb f3 2c 48 3c 55 22 cc 3b 22 cd 65 bc
       -0.007443742 0.012217748 0.0062296786 -0.014025958
000350 1c 45 9e 3c 8e 37 a4 3b 78 a3 a8 bb f8 79 8f bc
       0.019320063 0.0050115054 -0.00514644 -0.017514214
000360 b8 01 85 b9 87 9a 4a bc 9b 0f 4a 3c 6a 9a db 3b
       -0.00025369017 -0.012365944 0.012332822 0.006701757
000370 df d6 93 3b e6 83 a0 bc 81 df 43 bb 8b 7c 9a 3b
       0.0045116986 -0.019594144 -0.0029887857 0.0047145537
000380 30 57 8d 3a fe ec cc bb fb 90 14 3c 8a f9 19 bb
       0.001078343 -0.0062538376 0.009067769 -0.0023494684
000390 bc 63 12 3c 73 21 09 3c 62 aa c2 bb 51 11 b2 bb
       0.008934911 0.008369791 -0.0059407214 -0.005434193
0003a0 00 8e 57 3b 58 3b 4f bc ff 69 bd bb 5a b5 cf bb
       0.0032891035 -0.012648426 -0.005780458 -0.0063387575
0003b0 cd 23 0f bc e6 e4 c6 bb 06 dd 69 bc 97 64 3f 3c
       -0.008736563 -0.0060697673 -0.0142738875 0.011681697
0003c0 f6 e5 b5 bc 49 fa 20 bc b6 7f 2a 3c 8a af b0 3a
       -0.02220438 -0.009825298 0.010406425 0.0013480049
0003d0 6a 7f b2 3a e9 5b 9d ba c9 33 48 3c fc 93 17 3c
       0.0013618295 -0.0012005541 0.012219378 0.009251591
0003e0 ed 4a 5e ba 16 95 e7 3b 8e 79 eb 3b e7 2d 23 bb
       -0.0008479793 0.007067333 0.0071861213 -0.0024899186
0003f0 1a 7f 82 bc 48 c9 86 3c 1d 41 79 3c e6 d1 75 3c
       -0.015929747 0.0164534 0.015213278 0.015003657
