bert/ablation/modernbert_o2_only_task_main/last_checkpoint/head_score.pt (torch, 4989 bytes, 1 tensors)

weight f4 [1, 768]
00000000: 855d 48bd cafe 2abb 1ba8 703c c585 263c
00000010: cd1f 33bb 9965 1b3c 37c7 cbbc def9 5e3a
00000020: 534d a1bc 4349 72bc 55c9 97bb dff4 11bc
00000030: 6edc cc3b c544 473b bd6e 5ebb f03d dcbc
00000040: f099 aebc 4431 90bc 96c3 f43c 3d39 0d3c
00000050: 6540 d13b 83af 93bb 4334 9ebc aefc 93bc
00000060: d180 61b9 3e4c 5f39 c4e6 c0bc 53f1 403c
00000070: 549f a0bc 1a48 9bbc 86f6 a63b ded1 303b
00000080: 3646 3a3c 38aa 813c 34fa 5dbc 4964 243b
00000090: cbb3 e1bb 2f58 b93c d8d6 53bb 15ae 91bc
000000a0: e8a4 ad3a c270 2ebb 0aa2 77bb b26a 30bc
000000b0: fdc3 f4bb 4d48 61bc 471b a1bc f9ec 103b
000000c0: c14e 12bc b8ae b23c b3dd 153c 423b bd3c
000000d0: dee3 bc3b c788 bd3b b8d3 0ebc 96af 2b3c
000000e0: e907 7cb9 399a 963a 2242 603c c7b2 56bb
000000f0: d27d 83bc 66f2 633c eae9 80bc 7d9e 2a3c
00000100: 7bbc e13b af91 713b 374c 893c f94a 613c
00000110: e2c3 2cbc bdc7 03bc ce3a 8abc 3feb 08bc
00000120: 9891 84bc a41d a4bb bd73 c1b9 ed25 c0ba
00000130: d097 4fbc b3c1 853b b87f 833c d79a d93c
00000140: bc15 af3c 405e 4b3c aaa1 6bbc 5ac2 f4ba
00000150: f7c2 90ba 791c bfbc 2901 e63a af20 903c
00000160: 5a54 ccbc d373 b53a 7a48 733b befd 703c
00000170: 47c4 a4bc 9065 8f3c bb2a f4ba 008e 263c
00000180: 96e2 6bbc eacc d0bb c7d4 af3a b8b8 38bb
00000190: a1f7 01bc dd6b c83c 2628 e63c 1333 f6bc
000001a0: a5e8 793b 8bff 05bc 26c0 e03b d071 013b
000001b0: 1c2c 553b 2d98 9b3a 99e6 2fbc f124 ebbb
000001c0: c22c 293c c606 923b ac7a e8bb 320c 24bc
000001d0: fa02 9bbc 1c1f f93c da87 4f3c ba79 f93b
000001e0: 95b7 5f3b e90b 22bc 0869 bb3c 6102 d8bc
000001f0: 946b 663c b93f b3bc f82b 903c 5ae5 74bb
00000200: d7c8 14bc 4489 a63b 0b45 26bc 7aa2 123a
00000210: 660b c73b 7833 82bb 811c 8a3c fbfb 88bc
00000220: 0ab0 82bc 498a 42bc 4958 41bc dd75 c03b
00000230: a1d6 97bb 36d8 063c 626c b03a 0983 ed3b
00000240: 8d34 933c 1962 bfbc a413 083c afb7 6bbb
00000250: 9327 d03a baae 983b 243c 77bc d2b2 103c
00000260: 8203 853b e039 a7bc d77d eb3b b6bd fa3b
00000270: 64f2 3fbb 3577 2ebb 0897 6c3a f078 7a3c
00000280: 0fa4 05bc f57d b83b 5b84 af3a 9cea 97bc
00000290: ed85 0d3c 8411 323c 702b 11bc fec1 34bc
000002a0: 0068 753c 614c 13bd 84ad d63b ee2d 393c
000002b0: fa20 b93a a985 c7ba 4ecc 083d 723e 6e3c
000002c0: 38e5 6abc 545c 53bb 61f8 16bc 6fe9 59bb
000002d0: 24de 4fbc cce8 93bc 42c5 d1bb 7319 ca3c
000002e0: 962b e0bb 8d8d 26bc 193c e9bc 64d9 db3a
000002f0: 84cf a8bc cd15 943b 305f 323c 9c0b 9f3c
00000300: fbaa 453c 3265 9ebc 5104 19bb 02a2 ea3b
00000310: 532b 3ebc 73f5 aabc b18d 073c fb13 a13b
00000320: 6f4e 983c 7995 4cbc e5db 9abc 5fab d139
00000330: 57ce 7abc 8bfa 45bc c761 bbba 0593 3abb
00000340: 2367 86bb b2d4 063c 0f9d 663a 1524 84bc
00000350: d92c 1f3d e563 453c eb6c 0cbb 4753 a4bc
00000360: 9957 4cbb fd5a dcba 36d7 c23c 9374 a63c
00000370: f1ce f63c 10b4 39bc adbc d3bb 7355 613a
00000380: 5a63 0f3c d7fa 0d3c eab0 583c ff9a 2cbc
00000390: 16fc 5d3c 3527 363c 7ebf 12bc 8b99 80bc
000003a0: f9cb 853c d88c c0bb c689 2a3c 01e4 103c
000003b0: 91ac 27bc e5a4 1fbc b278 f4bb 8fbe 573c
000003c0: a99d 96bc 43e1 57bc efab ea3c cad2 2739
000003d0: 87b5 303c 849f b5bb 8c9f fd3a 4c49 d13a
000003e0: b3b5 9f3b 0a70 763c 68cd 913c e535 62bc
000003f0: f015 e9bc 0be2 de3b 56b3 ba39 02c0 0c3c
-0.048917312 -0.0026091808 0.014688517 0.010163729 -0.0027332187 0.009484672 -0.024875266 0.0008505861
-0.019690191 -0.014787975 -0.004632155 -0.0089084795 0.006251863 0.003040598 -0.0033940517 -0.026885003
-0.021313637 -0.017601617 0.029878419 0.008619604 0.0063858503 -0.0045070066 -0.01931203 -0.018064823
-0.0002150566 0.0002129534 -0.023547538 0.011776286 -0.019607224 -0.01895528 0.005095306 0.002698056
0.011369279 0.015828237 -0.013548423 0.0025084189 -0.006887888 0.022625057 -0.0032324102 -0.017783204
0.0013247998 -0.0026617502 -0.0037785792 -0.010767626 -0.0074696527 -0.013750148 -0.019666327 0.0022113903
-0.008929909 0.021811828 0.0091470955 0.023099545 0.0057644686 0.0057841274 -0.00871747 0.010478875
-0.0002403554 0.0011490054 0.013687642 -0.0032760368 -0.016051207 0.013912773 -0.015736539 0.010413763
0.0068889237 0.0036860516 0.016759975 0.013750785 -0.010544749 -0.008043227 -0.016873743 -0.008356868
-0.016182706 -0.0050084163 -0.0003689806 -0.001465974 -0.012670472 0.0040819286 0.016052112 0.026563091
0.021372668 0.012412608 -0.014381805 -0.0018673644 -0.0011044432 -0.023329007 0.0017547953 0.01759371
-0.024942566 0.0013843722 0.0037122057 0.014708934 -0.020113124 0.017504483 -0.0018628457 0.010165691
-0.014397284 -0.006372084 0.0013414853 -0.0028186273 -0.0079325745 0.024465496 0.028095316 -0.030053651
0.0038133052 -0.008178602 0.0068588434 0.0019751675 0.0032527512 0.0011870913 -0.010736131 -0.0071760346
0.0103256125 0.004456374 -0.0070947018 -0.010012673 -0.018922318 0.030410342 0.012666667 0.007613388
0.0034136523 -0.009890535 0.022877231 -0.026368322 0.014063735 -0.021880971 0.017599091 -0.003736815
-0.009081087 0.0050822813 -0.010148297 0.0005593669 0.006074357 -0.0039734207 0.016859295 -0.016721716
-0.015953083 -0.01187379 -0.011800834 0.0058734254 -0.00463374 0.00823026 0.0013460035 0.0072482866
0.017969394 -0.023362206 0.008305464 -0.0035967638 0.0015880935 0.004659501 -0.015090022 0.008831697
0.004059256 -0.02041334 0.007186632 0.00765201 -0.0029288763 -0.0026621346 0.0009025191 0.015287623
-0.00815679 0.0056302496 0.0013390885 -0.018544488 0.008637887 0.010868434 -0.008860454 -0.0110325795
0.014978409 -0.035961512 0.0065514464 0.011302454 0.0014124208 -0.0015222329 0.033397965 0.014541255
-0.014336877 -0.0032251077 -0.009214492 -0.003325071 -0.01268724 -0.018055342 -0.006401689 0.024670338
-0.0068411333 -0.010165584 -0.02847104 0.0016773161 -0.020606764 0.0045192004 0.010886952 0.019414715
0.012064691 -0.019335363 -0.002334852 0.007160426 -0.011607009 -0.020868992 0.008273528 0.004915712
0.018592088 -0.012486809 -0.018903682 0.00039991268 -0.015307984 -0.01208366 -0.0014296108 -0.0028468978
-0.0041016503 0.008229421 0.0008797207 -0.016130487 0.03886113 0.0120477425 -0.0021427225 -0.020059241
-0.0031180142 -0.0016811785 0.023784261 0.020319259 0.030127974 -0.011334434 -0.006461701 0.0008595802
0.008751715 0.008665762 0.013225773 -0.010535001 0.0135488715 0.011117746 -0.008956788 -0.015698215
0.016332613 -0.005876165 0.010408824 0.008843423 -0.010234014 -0.009743904 -0.007460677 0.013167991
-0.018385725 -0.013176265 0.028646437 0.00016004886 0.010785467 -0.0055426974 0.0019349917 0.0015967279
0.004873955 0.015041361 0.01779814 -0.013806795 -0.028452843 0.0068018488 0.000356103 0.0085907
