results/runs/modernbert_o2_third/last_checkpoint/head_score.pt (torch, 4989 bytes, 1 tensors)

weight f4 [1, 768]
0.0037157836 0.0054517603 0.016015276 0.0043031937 0.013350373 -0.0055069677 -0.004535878 -0.007456031
-0.019030461 -0.010624267 -0.00023703827 -0.0126667945 0.025466474 0.010777052 0.009493029 -0.026615527
0.0054501984 0.002253286 0.0019692064 0.0038429243 0.0055676578 -0.019700237 -0.028245118 -0.011373773
0.022662323 0.014411067 0.031375736 0.0017802264 0.017043458 0.014430823 0.008786166 0.012960966
0.006097326 0.021884657 -0.0070941476 -0.01054889 0.02282233 -0.004576973 -0.008582878 -0.011228503
0.030379578 -0.021300524 0.0022447046 -0.007949398 -0.007554816 -0.018465862 -0.016676968 0.025544599
-0.011304516 -0.008191796 0.0011407994 0.005356684 0.013536466 0.007668027 0.010705628 0.014140655
0.00020074836 0.0019341548 -0.001461339 0.0035819872 -0.012931069 -0.024090722 -0.017802564 0.014569095
0.013475585 -0.0055907015 0.0076481146 0.009951071 -0.005932861 -0.011757339 0.025302423 0.002324095
-0.008574352 -0.0012602853 0.011051956 -0.010593577 0.0074829627 0.014070164 0.007833081 -0.011979709
0.01344506 -0.029609552 -0.018057115 0.0099088885 0.013681652 -0.006700578 -0.0040925276 -0.0077892304
0.009436606 -0.008013708 -0.00639445 0.0030505038 0.0118634505 -0.00882738 -0.02182856 -0.009973706
0.016260777 0.0077911834 0.01981266 -0.0024660307 -0.0080626765 0.012636603 -0.009363879 0.016264237
0.0010296896 -0.009886975 0.0020016367 0.0025346146 0.0110532995 0.0025291452 0.0021414186 -0.008259727
-0.011572997 0.0016402032 -0.026560219 0.0114934975 0.0046505383 -0.024326857 -0.012750207 -0.012767699
0.009409404 -0.018963048 0.018831069 -0.018124428 0.0008079738 -0.021566024 -0.0061687953 0.01071016
0.015103386 0.014002391 -0.004826893 -0.015060371 0.018527327 -0.01848746 -0.031792983 0.021352042
-0.0004110396 -0.01769946 -0.018086772 0.008926101 0.0043042134 0.001314644 -0.021926142 -0.006446251
0.012050498 -0.02090496 -0.00891469 0.020747617 0.00868009 0.01427677 -0.009988028 -0.00300441
0.02777101 -0.028295882 -0.0001214593 0.0004195347 0.011133539 0.0021085667 -0.0134516405 0.00082529464
0.004075984 0.012471179 -0.00052707404 0.012404793 0.0013421087 3.7631955e-05 0.018754942 -0.006110673
-0.009345044 0.011975505 0.015642442 0.0359241 0.0037091032 -0.006309911 0.006952786 0.01260937
0.008389648 0.002978622 -0.0034186526 -0.0038030706 -0.005847702 0.002703709 0.01734463 -0.0017074589
-0.011890367 -0.005433205 -0.00082961953 -0.017759405 0.020818409 -0.007830264 0.0011164864 -0.03098604
-0.007878131 -0.020267215 0.01001372 -0.010023393 0.006193926 -0.0056510535 -0.013176134 0.014743197
-0.005149811 0.008092254 0.009403844 0.017033728 -0.006240196 -0.013436367 0.0071486784 -0.0030684911
0.009320491 0.0061460584 -0.0032567568 0.004412423 0.0057961056 -0.0028418836 0.00021650057 -0.017368123
-0.01172407 -0.004160522 0.003975978 -0.013924791 -0.007872992 -0.0052542 -0.00030081513 -0.0069290097
-0.0069974023 0.012219527 -0.017365249 -0.0033053171 0.016957214 -0.00705553 -0.0047147116 -0.0018108828
0.00064469874 -0.009007967 0.008310968 -0.0077387327 -0.021799156 0.015909411 -0.017652756 -0.008521531
-0.011508172 0.0036196986 0.010016865 0.0016077242 -0.011724107 -0.005260474 -0.0016744559 0.0040104836
-0.009394129 0.0069938144 -0.0037781484 0.00825259 0.0067221923 0.019038629 -0.0055024074 0.006842595
00000000: 8184 733b aea4 b23b 7832 833c ce01 8d3b
00000010: 86bb 5a3c cb73 b4bb b4a1 94bb b951 f4bb
00000020: c5e5 9bbc 6811 2ebc 7a8d 78b9 6388 4fbc
00000030: 119f d03c 3b92 303c a688 1b3c ce08 dabc
00000040: 9497 b23b deab 133b cd0d 013b 92d9 7b3b
00000050: e670 b63b 6462 a1bc 4e62 e7bc 1059 3abc
00000060: 56a6 b93c 651c 6c3c d883 003d 7c56 e93a
00000070: b99e 8b3c 426f 6c3c daf3 0f3c 3b5a 543c
00000080: 14cc c73b 7447 b33c 0676 e8bb 40d5 2cbc
00000090: e5f5 ba3c 6ffa 95bb 339f 0cbc c1f7 37bc
000000a0: 98de f83c 707e aebc e51b 133b 313e 02bc
000000b0: 648e f7bb b845 97bc 239e 88bc e842 d13c
000000c0: 9436 39bc e236 06bc e086 953a 1f87 af3b
000000d0: 0ec8 5d3c 1344 fb3b a966 2f3c 35ae 673c
000000e0: fa7f 5239 7783 fd3a 668a bfba c6bf 6a3b
000000f0: d6dc 53bc e859 c5bc afd6 91bc 37b3 6e3c
00000100: b3c8 5c3c 3432 b7bb 099d fa3b d109 233c
00000110: 7268 c2bb dba1 40bc 0747 cf3c d84f 183b
00000120: 707b 0cbc 2830 a5ba 4313 353c af90 2dbc
00000130: a433 f53b 8c86 663c 5356 003c 8b46 44bc
00000140: ab48 5c3c bb8f f2bc 84ec 93bc e458 223c
00000150: 0229 603c 8690 dbbb 9c1a 86bb cd3c ffbb
00000160: ff9b 1a3c ed4b 03bc 8988 d1bb f6ea 473b
00000170: eb5e 423c b7a0 10bc cfd1 b2bc c168 23bc
00000180: 5235 853c 2f4d ff3b 294e a23c 219d 21bb
00000190: 5119 04bc c109 4f3c f56a 19bc 943c 853c
000001a0: a6f6 863a fbfc 21bc e42d 033b c71b 263b
000001b0: e618 353c 04c0 253b 0b57 0c3b ce53 07bc
000001c0: ab9c 3dbc 16fc d63a d194 d9bc 394f 3c3c
000001d0: 8b63 983b 1e49 c7bc 3fe6 50bc 9c2f 51bc
000001e0: e729 1a3c 6558 9bbc 9d43 9a3c ae79 94bc
000001f0: 34ce 533a 3bab b0bc 9b23 cabb ab79 2f3c
00000200: 3174 773c 496a 653c ea2a 9ebb c6bf 76bc
00000210: 9fc6 973c 0473 97bc 5c39 02bd 7aea ae3c
00000220: cd80 d7b9 75fe 90bc b62a 94bc c83e 123c
00000230: 5c0a 8d3b 2250 ac3a 749e b3bc 133b d3bb
00000240: 746f 453c e140 abbc ec0e 12bc e8f6 a93c
00000250: f036 0e3c 1de9 693c d3a4 23bc a3e5 44bb
00000260: 0780 e33c c4cc e7bc f7b7 feb8 fff4 db39
00000270: 7269 363c e12f 0a3b 4564 5cbc 9658 583a
00000280: d58f 853b ea53 4c3c 572b 0aba 793d 4b3c
00000290: b2e9 af3a 01d7 1d38 f7a3 993c 0a3c c8bb
000002a0: f51b 19bc e934 443c 9424 803c 2625 133d
000002b0: 6d14 733b 5fc3 cebb 32d4 e33b 8897 4e3c
000002c0: bc74 093c fc34 433b 790b 60bb f03c 79bb
000002d0: 149e bfbb b630 313b 5316 8e3c d0cc dfba
000002e0: d0cf 42bc 0709 b2bb d37a 59ba 2c7c 91bc
000002f0: 5e8b aa3c 824a 00bc 1157 923a 70d6 fdbc
00000300: 4713 01bc 6e07 a6bc 9610 243c 2839 24bc
00000310: 6bf6 ca3b 792c b9bb b6e0 57bc 738d 713c
00000320: bfbf a8bb 6095 043c 9512 1a3c 518a 8b3c
00000330: 8f7a ccbb 3524 5cbc 763f ea3b bd18 49bb
00000340: f9b4 183c e064 c93b 506f 55bb 1696 903b
00000350: 42ed bd3b e53e 3abb 6e04 6339 9847 8ebc
00000360: 5016 40bc fd54 88bb ec48 823b ce24 64bc
00000370: b9fd 00bc 6d2b acbb b9b6 9db9 bf0c e3bb
00000380: 774a e5bb 6934 483c 9141 8ebc 059e 58bb
00000390: dbe9 8a3c 1332 e7bb de7d 9abb 255b edba
000003a0: 0001 293a 2796 13bc ba2a 083c 3295 fdbb
000003b0: 2594 b2bc 7454 823c 839c 90bc e49d 0bbc
000003c0: c68c 3cbc 7738 6d3b c71d 243c 46ba d23a
000003d0: 7816 40bc 0e60 acbb 6b79 dbba 606a 833b
000003e0: d5e9 19bc 5e2c e53b d09a 77bb df35 073c
000003f0: d645 dc3b e6f6 9b3c 8a4d b4bb d937 e03b
