bert/ablation/modernbert_o2_ablation_weight/last_checkpoint/head_score.pt (torch, 4989 bytes, 1 tensors)

weight f4 [1, 768]
0	0xbd20df20	-0.03927529
1	0xba48b1f1	-0.000765591
2	0x3bfe89ce	0.0077678924
3	0xbba7a0dc	-0.0051156115
4	0xbbb1fb33	-0.0054315566
5	0x3c913330	0.017724603
6	0xbc02f9f6	-0.007994166
7	0x3c15aab3	0.009134936
8	0xbc4cd1a1	-0.012501151
9	0xbc2933ad	-0.010327262
10	0x3b4ae124	0.0030956948
11	0xbb97fe81	-0.0046384935
12	0x3bc3f2f3	0.0059798895
13	0xbb3a7645	-0.0028451842
14	0x3c12c554	0.0089581795
15	0xbb816c98	-0.003949713
16	0xbbfbc6c1	-0.0076836054
17	0xbc6120c6	-0.013740724
18	0x3cad0ec5	0.021125207
19	0x3be7245e	0.007053896
20	0x3c4795cd	0.012181711
21	0x3b8377b0	0.0040120706
22	0xbc7102b9	-0.014710122
23	0xbcc851ba	-0.024453033
24	0x3aaac584	0.0013028835
25	0x3b624464	0.0034525627
26	0xbb1e7bbf	-0.0024182645
27	0x3a2488a9	0.00062764675
28	0xbc1f5c8d	-0.009726656
29	0xbc880d88	-0.016608015
30	0x3c35b0a0	0.011089474
31	0xbbac8626	-0.005265015
32	0x3aea39bf	0.0017869993
33	0x3cf8fdf1	0.030394526
34	0xbbef31cf	-0.007299639
35	0x3c2c0749	0.010499784
36	0xbc947fff	-0.01812744
37	0x3cb7617f	0.022385357
38	0x3bd0cf39	0.006372359
39	0xbc8bd858	-0.017070934
40	0x3c3a67e3	0.011377308
41	0x3c92a06d	0.017898763
42	0xbc9c1346	-0.019052159
43	0xbb2d319d	-0.0026427277
44	0x3c4d66d7	0.012536726
45	0xbcd2112b	-0.025642952
46	0xbcc038eb	-0.02346464
47	0x3b7a0281	0.0038148465
48	0xbc8b4ca8	-0.017004326
49	0x3cac9896	0.021068852
50	0x3c011329	0.007878103
51	0x3cd24ff3	0.025672888
52	0xbb07be20	-0.0020712689
53	0xbbdadb9b	-0.006679011
54	0xbad3b82c	-0.001615291
55	0x3b78c079	0.003795652
56	0xba92bc50	-0.0011195038
57	0x3c28c57b	0.010300989
58	0x3c9d4fb0	0.019203037
59	0xbc32afc1	-0.010906161
60	0xbc95141b	-0.018198064
61	0x3be3689c	0.0069399606
62	0xbc1f7c3c	-0.00973421
63	0x3acf2a46	0.0015805445
64	0x3b9cdd78	0.0047871433
65	0x3b8e5bf9	0.00434446
66	0x3c05587e	0.008138774
67	0x3c336209	0.010948666
68	0xbad23e16	-0.0016040232
69	0xbbf75089	-0.0075474423
70	0xbb2541e6	-0.002521628
71	0xbc3e4ee8	-0.011615492
72	0x3b34289c	0.0027490025
73	0xbc21644c	-0.009850573
74	0x3c4ce6dd	0.012506214
75	0x3ac5c214	0.0015087747
76	0xbcc0f1e2	-0.023552839
77	0xbb1573c6	-0.0022804602
78	0x3b772e8b	0.003771695
79	0x3cfd58e0	0.030926168
80	0x3c9ae4ec	0.018907987
81	0xbb5fcf3b	-0.0034150619
82	0xbc39e454	-0.011345942
83	0xbba5eeee	-0.005063883
84	0xbc72c3f3	-0.014817226
85	0xbc6d427f	-0.014481186
86	0x3a04399d	0.00050439854
87	0x3c0f958a	0.00876368
88	0xbc6a3436	-0.014294675
89	0x3c11f52a	0.008908549
90	0x3bbe2e7e	0.005803882
91	0x3c2bda3b	0.010489042
92	0xbce65767	-0.028117849
93	0x3c6d51f9	0.014484876
94	0xbb880cfd	-0.004151939
95	0xbbb74889	-0.0055933637
96	0xbb57af71	-0.0032910968
97	0x3b14a4b4	0.0022681179
98	0x3b51c66b	0.0032009135
99	0x3c1097f5	0.008825292
100	0x39043543	0.00012608343
101	0x3c89249d	0.016741091
102	0x3ca8e8b3	0.020618772
103	0xbc68ad49	-0.014201471
104	0xbbc3b9f4	-0.005973095
105	0x3c01c657	0.007920823
106	0x3c5f5349	0.013630697
107	0xbc604950	-0.013689354
108	0x3bca5f48	0.006175909
109	0x3be6b313	0.0070403903
110	0x39526446	0.00020064515
111	0xbbaf2831	-0.0053453674
112	0x3c924088	0.017853037
113	0xba82e897	-0.000998753
114	0xbb832351	-0.004002013
115	0xbcadca1d	-0.02121454
116	0xbccf8812	-0.025333438
117	0x3cea2ccc	0.028585814
118	0x3bbf62f1	0.005840652
119	0x3b875014	0.004129419
120	0xbbe444da	-0.0069662156
121	0xbc570624	-0.013124023
122	0x3ca50300	0.020143032
123	0xbd078a67	-0.033090975
124	0x3c063f01	0.008193732
125	0xbcfb11e9	-0.030648189
126	0x3c96beff	0.01840162
127	0xbc370fe0	-0.0111732185
128	0xbca08471	-0.019594403
129	0x3be57bf0	0.0070033
130	0xbc22ed74	-0.009944309
131	0x3c241867	0.010015584
132	0x3c2c351a	0.010510707
133	0xbc4895fa	-0.012242788
134	0x3ca93957	0.020657225
135	0xbcc02997	-0.023457332
136	0xbca075d8	-0.019587442
137	0xbbce9ce8	-0.006305326
138	0xbc866479	-0.016405331
139	0x3c8ddd91	0.017317565
140	0x3b9707c9	0.0046090824
141	0x3c501762	0.012700887
142	0x3c00927d	0.0078474255
143	0x3c53415e	0.012894003
144	0x3c54227f	0.012947678
145	0xbc206757	-0.009790263
146	0xbad3d354	-0.0016161003
147	0xbc326fde	-0.010890929
148	0xba0ef04b	-0.00054526766
149	0xbc17c21b	-0.009262587
150	0x397ab012	0.00023907449
151	0xbb3bcf6c	-0.0028657569
152	0x3c162a7a	0.009165401
153	0xbc7cd47d	-0.0154315205
154	0xbb5de81d	-0.0033860274
155	0x3a882e09	0.0010389696
156	0xbbb33bce	-0.0054697758
157	0xbc9722a0	-0.018449128
158	0x3b3d01a1	0.0028840082
159	0xba5f488e	-0.00085175864
160	0xbb7e3a4f	-0.003879208
161	0x3c21e5e7	0.009881473
162	0xbb0871a6	-0.0020819693
163	0xbcd36cda	-0.02580874
164	0x3c30eae1	0.010798187
165	0x3c722020	0.014778167
166	0xbcc6d4d3	-0.024271404
167	0xbb36ad2c	-0.0027874215
168	0x3c91b2ab	0.01778539
169	0xbcfdfd3d	-0.031004542
170	0xbb6a2cac	-0.0035732193
171	0x3c63089b	0.013857032
172	0x3c2cff31	0.010558889
173	0x3a905260	0.0011010878
174	0x3cb3e061	0.021957578
175	0x3c51a939	0.0127966935
176	0xbc107572	-0.008817064
177	0x3bd7c75e	0.0065850457
178	0x3c038a8e	0.0080286395
179	0x3b2ad4b5	0.0026066725
180	0xbc899edb	-0.016799381
181	0xbc35de2f	-0.011100336
182	0x3b29b3a7	0.0025894435
183	0x3afed565	0.0019442259
184	0xbc8c86df	-0.017154155
185	0xbc87fb13	-0.016599214
186	0xbd12fa93	-0.035883497
187	0x3b18f197	0.0023337358
188	0xbc46b1c6	-0.012127345
189	0x3b441160	0.0029917583
190	0x3be7a976	0.007069762
191	0x3c7b0465	0.015320872
192	0x3b228ad4	0.0024801986
193	0xbd0a327e	-0.03373956
194	0xbbec5120	-0.0072118193
195	0xbba389bb	-0.004990784
196	0xbc869131	-0.016426655
197	0xbd023c08	-0.03179553
198	0x3ce4cd5a	0.02792995
199	0xbbf7d4a9	-0.007563193
200	0x3c69c0b2	0.014267134
201	0xbb2b5a2e	-0.002614628
202	0xbcdd52b3	-0.027016973
203	0xbbde9a09	-0.0067932648
204	0xbc0aa379	-0.0084618265
205	0xbc6004a1	-0.013672979
206	0x3b6d858d	0.0036242933
207	0xbc25c084	-0.0101167
208	0xbc5fa85c	-0.01365098
209	0x3ca15780	0.019695044
210	0x3c4251bf	0.01186031
211	0xbc010bc6	-0.007876342
212	0x3c9ab04d	0.018882895
213	0x3c6a8af2	0.014315354
214	0x3b1f813c	0.0024338504
215	0xbcb4c1b8	-0.022065029
216	0x3b52accd	0.0032146454
217	0xbc53c4c1	-0.012925328
218	0x3c9a79ba	0.018856872
219	0x3c4fcdaa	0.0126833115
220	0x3c1f71cd	0.009731722
221	0xbc0fca91	-0.008776323
222	0x3b7d0be1	0.0038611817
223	0x3b078ac9	0.0020682088
224	0x3c1597b4	0.009130407
225	0xba6a8c5a	-0.00089473056
226	0x3b81001f	0.003936782
227	0xbbca2531	-0.0061689843
228	0x3bf9005e	0.0075989207
229	0xba928d58	-0.001118104
230	0xbc356fe7	-0.011074043
231	0xbc02e210	-0.007988468
232	0x3c0c9804	0.008581165
233	0xbc10f268	-0.008846857
234	0xbbf38721	-0.00743188
235	0xbaf1f567	-0.0018459976
236	0xbc061372	-0.008183347
237	0xbc2d4309	-0.010575064
238	0xbca4698d	-0.020069862
239	0x3cbfe070	0.02342245
240	0xbcd382d3	-0.025819218
241	0xbcead223	-0.028664654
242	0x3c444bfe	0.011981009
243	0x3c45883b	0.012056406
244	0x3be97bce	0.0071253544
245	0x3b90e6bc	0.004422037
246	0x3c9355c2	0.017985228
247	0x3b985121	0.004648343
248	0xbb0c1024	-0.0021371925
249	0x3c3768ca	0.011194417
250	0x3bc32a68	0.005955983
251	0xbc11654d	-0.00887425
252	0xbc952e0c	-0.018210433
253	0x3ca06e1a	0.01958375
254	0x3c01f52a	0.007931987
255	0x3c0be466	0.008538341
