results/runs/modernbert_o2/head_score.pt (torch, 4989 bytes, 1 tensors)

weight f4 [1, 768]
0	0xbcb71c41	-0.02235234
1	0x3c94b331	0.018151851
2	0xbb977b8d	-0.0046228827
3	0x3bd92388	0.00662655
4	0xbb0010b7	-0.0019541213
5	0x3c9328d0	0.017963797
6	0xbccda893	-0.025104797
7	0xbcc81806	-0.024425518
8	0x3d128e1c	0.035780057
9	0xbc24ba07	-0.010054118
10	0x3d076fd0	0.033065617
11	0xbca713f3	-0.020395255
12	0x3cc4d038	0.024025068
13	0x3bb31ca3	0.0054660602
14	0x3c8af12d	0.016960705
15	0xbd02a9a6	-0.03190007
16	0x3d00a758	0.03140959
17	0xbce16039	-0.027511703
18	0x3b67eefe	0.0035390253
19	0x3ce6cf77	0.028175099
20	0x3baa1f95	0.005191753
21	0x3bf8b9fd	0.007590531
22	0x3c13a0b5	0.0090104835
23	0xbcb927c5	-0.022601971
24	0x3c10bc31	0.008833931
25	0x3bf93e88	0.0076063313
26	0xbcf2881d	-0.02960592
27	0x3b9a92dc	0.004717214
28	0x3c259676	0.010106673
29	0x3cc0b409	0.023523347
30	0x3b3d53d4	0.0028889077
31	0xbcfaea65	-0.030629346
32	0x3cb3e13e	0.02195799
33	0x3c8c81b4	0.017151691
34	0xbcfa5077	-0.030555947
35	0xbd21b582	-0.03947974
36	0xbd23cb31	-0.0399887
37	0xbb7b77b8	-0.0038370918
38	0xbc9071d2	-0.017632399
39	0x3cd14f84	0.025550611
40	0xbc4da5b8	-0.012551717
41	0xbca4d7a4	-0.020122357
42	0x3cba588b	0.022747299
43	0xbc8759bc	-0.01652228
44	0xbcd28897	-0.025699897
45	0xbc1e7776	-0.009672036
46	0x3c0f0c29	0.008730927
47	0x3b6a5071	0.0035753513
48	0x3ca3a564	0.019976325
49	0x3ca7fe7f	0.020507095
50	0x3ccffccb	0.025389096
51	0x3cc1d979	0.02366327
52	0x3c87bcf3	0.01656959
53	0xbd097dad	-0.03356712
54	0xbcae7885	-0.021297703
55	0xbc776414	-0.015099544
56	0x3d0d9c63	0.03457297
57	0x3c54bd71	0.0129846195
58	0xbb810d35	-0.003938342
59	0xbbe0e258	-0.00686292
60	0xbd186d90	-0.037213862
61	0x3caad374	0.020852782
62	0x3be0135b	0.006838245
63	0xbcf80d2f	-0.030279724
64	0x3c9e25e4	0.019305177
65	0x3bf91357	0.0076011824
66	0xbc5af07d	-0.013363001
67	0xbc2ca671	-0.01053773
68	0xbd12615a	-0.035737373
69	0xbc60a206	-0.013710504
70	0x3cc6e9fa	0.02428149
71	0x3cbf9c35	0.023389915
72	0x3cf4b463	0.029871171
73	0xbcba0dce	-0.02271166
74	0x3cf013ef	0.02930638
75	0xbc005771	-0.007833348
76	0xbcef7715	-0.029231587
77	0xbcb9f0b6	-0.022697788
78	0xbac4a3f5	-0.0015002476
79	0xbd044ba1	-0.032298688
80	0x3cc12c37	0.023580654
81	0xbc162534	-0.009164143
82	0x3c2d085f	0.010561078
83	0x3b942798	0.0045213215
84	0xbcc23d8b	-0.023710987
85	0x3c65fef4	0.014037836
86	0x3c94727c	0.018120997
87	0xbcb47652	-0.022029076
88	0xbc857f16	-0.01629595
89	0x3ce084db	0.0274071
90	0x3c6cd403	0.014454844
91	0x3cf818b4	0.030285217
92	0xbbd4d603	-0.0064952387
93	0xbcf57aef	-0.029965846
94	0xbd057eec	-0.032591745
95	0x3b289ab0	0.0025726967
96	0xbcd5335c	-0.026025467
97	0xbbc2ec62	-0.005948589
98	0xbc2a2bdc	-0.010386433
99	0xbcecdbd0	-0.028913409
100	0x3c1d0558	0.009583794
101	0x3c9cadaa	0.019125778
102	0xbcbd0fbc	-0.023078792
103	0x3d169e7f	0.036772247
104	0x3cc493cf	0.023996262
105	0x3a006e71	0.00048992696
106	0xbceb0241	-0.028687598
107	0x3ca8a289	0.020585315
108	0xbc5afe9e	-0.0133663695
109	0x3c7d0862	0.015443893
110	0xbc98db7b	-0.018659344
111	0xbc09b9ed	-0.008406145
112	0xbd13bcb6	-0.03606864
113	0x3c313cce	0.01081772
114	0x3b3c6147	0.0028744505
115	0x3a721ebe	0.00092361483
116	0x3c70ff8d	0.014709366
117	0xbcf35265	-0.029702375
118	0xbc422cf5	-0.011851539
119	0xbc2ff37e	-0.010739205
120	0x3cdde82d	0.02708825
121	0xbbe560cb	-0.007000064
122	0x3c4c706a	0.0124779735
123	0x3c42a0f7	0.011879197
124	0x3ca53497	0.020166678
125	0xbb041674	-0.0020154985
126	0xbcdffaee	-0.027341332
127	0x3cb5581e	0.022136744
128	0xbbbb5159	-0.0057164845
129	0x3c9c4f56	0.0190808
130	0x3c68d9a2	0.014212044
131	0xbc36e4c0	-0.011162937
132	0xbc2a3795	-0.010389228
133	0x3d1ed2d9	0.0387753
134	0xbc0a2056	-0.008430561
135	0xbb70d709	-0.0036749265
136	0xbb190266	-0.0023347377
137	0x3cb520a8	0.022110298
138	0xbcda694a	-0.026661534
139	0x3cca9580	0.02472949
140	0xba8a3fcb	-0.0010547576
141	0x3c10351f	0.008801728
142	0x3d0658c3	0.032799494
143	0xbd041bcc	-0.03225307
144	0x3cfc1299	0.030770587
145	0x3c5b5add	0.013388363
146	0x3c9e6890	0.019336969
147	0x3c11aaee	0.0088908505
148	0xbc3462c2	-0.011009874
149	0x3ce0e8e8	0.027454808
150	0x3bc8539f	0.006113484
151	0xbcec9815	-0.028881112
152	0x3ccd83e0	0.025087297
153	0x3bc2d053	0.0059452443
154	0xbcbf1437	-0.023325069
155	0x3c4d842b	0.012543718
156	0x3caac060	0.020843685
157	0xbd0be68d	-0.034155417
158	0xbc06f591	-0.0082372585
159	0xbc75ea0e	-0.015009416
160	0xbbc0c3d1	-0.005882718
161	0xbccb6fd3	-0.024833595
162	0x3bce2b1e	0.006291761
163	0xbb9477a1	-0.0045308624
164	0x3b874bb3	0.004128897
165	0x3c93d8fd	0.018047804
166	0x3b73d475	0.0037205492
167	0xbb8a8015	-0.0042266943
168	0x3bdafd22	0.006683008
169	0xbc6e1d86	-0.014533406
170	0xbcd12316	-0.025529426
171	0xbce3d8bc	-0.027813308
172	0xbc5f08d9	-0.013612949
173	0x3b0bdf9c	0.0021342998
174	0x3c064927	0.008196152
175	0x3d089b1b	0.033351045
176	0xbc0ab272	-0.008465396
177	0xbc7f11cb	-0.015568207
178	0xbb1c86f6	-0.0023884154
179	0x3c515cf2	0.012778508
180	0x3c9cb587	0.019129528
181	0x3ca9daf2	0.020734284
182	0x3c2eafe9	0.010662057
183	0xbccbe8e2	-0.02489132
184	0x3c3c8a7a	0.011507625
185	0x3ced82cd	0.028993035
186	0x3ad60f65	0.0016331492
187	0xb7d6d782	-2.5611142e-05
188	0x3cb24119	0.021759557
189	0xbca17e3b	-0.019713512
190	0xbc3b121a	-0.01141789
191	0x3cf2ad02	0.029623512
192	0xbcd7bf4f	-0.02633634
193	0x3c51e403	0.01281071
194	0xbb721947	-0.0036941336
195	0x3bcd99e6	0.0062744496
196	0xbc1545bb	-0.009110863
197	0x3ccd2b55	0.025045076
198	0xbc9eb86f	-0.019375054
199	0xbcbca2b4	-0.023026802
200	0xbc928427	-0.01788528
201	0xbd07029f	-0.032961484
202	0x3ca18a53	0.019719278
203	0xbc929875	-0.017894963
204	0x3c7da3a5	0.01548091
205	0x3b4a454b	0.0030864056
206	0x3bbc758a	0.0057513164
207	0x3cf6143e	0.03003895
208	0xbd19e132	-0.03756828
209	0xbca88571	-0.020571442
210	0x3d0c9a99	0.034327123
211	0xbb1f6d90	-0.002432678
212	0x3c5791b6	0.013157299
213	0x3cc1380e	0.0235863
214	0x3c6680af	0.0140687665
215	0x3b85c852	0.004082718
216	0x3ca3ed8c	0.020010732
217	0x3cffce8c	0.031226419
218	0x3c1f675f	0.009729235
219	0x3ca4ff6e	0.02014133
220	0xbceddaa6	-0.029034924
221	0x3ce51c53	0.027967608
222	0x3be6919d	0.0070364014
223	0xbbf1c494	-0.0073781703
224	0x3d144472	0.036198087
225	0x3d0a404b	0.03375272
226	0xbc61745a	-0.0137606505
227	0xbd0f2417	-0.034946527
228	0x3c46d502	0.012135746
229	0xbc403350	-0.011730984
230	0xbc0366b8	-0.0080200955
231	0xbcd10bc1	-0.0255183
232	0x3ca2b792	0.019862924
233	0x3cb0cbb9	0.021581518
234	0xbbcb784c	-0.006209409
235	0x3c3f0a0c	0.01166011
236	0xbc220cb5	-0.009890725
237	0x3ca64892	0.020298276
238	0x3c5d1e28	0.013495959
239	0xbc9043c6	-0.017610442
240	0x3c6c5896	0.014425417
241	0x3d01acdc	0.031658992
242	0x3b9b13f2	0.0047326023
243	0x3a7111f3	0.0009196095
244	0x3c6d3dab	0.014480035
245	0x3ca46ee0	0.0200724
246	0xbccbcb6a	-0.024877269
247	0xbc1ac221	-0.009445698
248	0xbc5b4dec	-0.013385277
249	0x3cebe838	0.028797254
250	0xbc7c1c9a	-0.0153876785
251	0x3c2956f5	0.010335674
252	0x3cbdc16c	0.02316352
253	0x3c853471	0.016260358
254	0x3c11ed84	0.008906726
255	0xbd122002	-0.035675056
