results/runs/modernbert_o2/head_score.pt (torch, 4989 bytes, 1 tensors)

weight f4 [1, 768]
00000000: e0c3 d2bc b6e2 eb3c e879 56bb dac1 b43b
00000010: 9859 84bb 6506 c33c 8fb2 d9bc 6f69 b2bc
00000020: 8e9e da3c b0e8 22bc 80d0 083d 198d c2bc
00000030: aff8 013d 40e1 2e3c 4eee cd3c 57ac e6bc
00000040: ee4d e03c 9ee1 d6bc dcb5 723b 0a78 d23c
00000050: 53e0 843c 987f 073c c5b0 983b 1a55 a2bc
00000060: 1245 513b a1f5 d83b ae37 fabc 7d11 cb3b
00000070: c2c9 763c 9d0c 903c ea8f fe3a 7515 1cbd
00000080: 35f0 ad3c 7967 ad3c a338 1bbd 676b 43bd
00000090: 6aa8 0dbd f7b0 04bc 39bf 7dbc fb4b d43c
000000a0: 6302 86bc c81d d6bc e3ef 833c d755 5ebc
000000b0: b2f4 c5bc 86e4 53bc 1e4e af3b 4c64 743b
000000c0: 2558 a63c 2173 c03c b665 9d3c b071 ba3c
000000d0: 72cd 8d3c 44aa 18bd 4cb1 c2bc 66b0 50bc
000000e0: 1222 ee3c 5741 4c3c e968 a5ba 65c5 52bc
000000f0: 2100 18bd 7626 8f3c 471b ea3b ccdf 11bd
00000100: d92d d83c 48df 803c 8129 52bc 0a41 2cbc
00000110: c68c 04bd 54ae 9abc 728b bc3c 0856 bb3c
00000120: ebc1 f53c 0964 e1bc b832 e33c 8f90 4ebc
00000130: ba90 06bd dc2f 04bd 24ef 00bb bb92 f6bc
00000140: 7358 9e3c e1d6 53bc 6467 b03a 015e 9e3b
00000150: 124d 01bd be8d 253c 491f 8b3c 997a d0bc
00000160: 93e1 babc ed4b d33c 9bff a93c e8b4 ea3c
00000170: 6f3a 4abc 93cb bebc d2c0 0fbd 74f6 a13b
00000180: 6a28 fcbc 32e2 1dbc ac3b 3cbc f558 eebc
00000190: 0932 4f3c 087f 463c 2c9e babc 2be6 fe3c
000001a0: f1f7 cb3c 0a98 0dbb f0bd bdbc dfb8 a03c
000001b0: a605 22bc 5f29 9a3c 4310 3fbc a46d 59bc
000001c0: bda5 f6bc 6f2b a03b 9513 9b38 20bf 4a3b
000001d0: 897d b93c d7c6 dbbc ee68 00bc 363b 50bc
000001e0: b0ff c83c 16ac 61bb a4e2 963c deff ce3c
000001f0: 2f86 a93c 73e3 01bc c40d cfbc 9807 b23c
00000200: 5a51 293b ffb6 ca3c 1dbb 553c 0a6b 39bc
00000210: 91ed 5abc f3c7 f03c 78e3 84bc 3b5a 9bbb
00000220: 7a4b da3b 24ea 833c 7acc ffbc eba2 f53c
00000230: 8e97 c1ba 4d64 d43b 18f6 ef3c 30c9 14bd
00000240: 5997 0e3d 49ad a13c 9d2d 413c 2eea 523b
00000250: bbad dbbb 47f0 083d 259f ddb9 3b68 0bbd
00000260: 1149 e43c e2d5 db3b 87be ecbc ef3b 613c
00000270: 0d3f 8f3c df24 00bd acfb 7cbc c8d0 03bc
00000280: 8843 42bc b397 a8bc f582 02bb dfcc 02bc
00000290: bd02 083c 3631 583c 8ce6 39bb 0f37 77bc
000002a0: 6203 ed3b a21f 4dbc 5cfe b8bc 85c0 f5bc
000002b0: 3d01 5fbc 7b80 2abb 5855 433c fa5a d63c
000002c0: d4e7 86bc 8538 1fbc 64b3 19bc 4b1d 943b
000002d0: 1182 853c ad88 f13c 8181 233c f2da 08bd
000002e0: e31a 093c cc30 ee3c cb50 a939 9967 733b
000002f0: 629a 583c fb4a b2bc e1a2 80bc f1d3 f33c
00000300: 8d09 07bd 561d 343c 095c 01bc 7652 4a3c
00000310: 6bb3 00bc f42d df3c 9280 55bc 43c8 a8bc
00000320: aaf5 cbbc 342e 09bd eafc c13c fd85 a9bc
00000330: 4bf4 ad3c d214 2d3b 8546 2b3b 0f83 f93c
00000340: 0e62 0dbd a686 c3bc 1940 093d cc89 29bb
00000350: 2ae5 933c 1f37 f93c 2638 743c 6817 b63b
00000360: bcca c33c dafd 143d 08b2 633c 47ee 9d3c
00000370: 73c3 0cbd f3b5 bd3c 5180 693c b629 89bb
00000380: 57e4 f63c 7a26 013d b560 7cbc 18be 28bd
00000390: 062e 593c 2bb1 8fbc 3bf4 31bb a170 57bc
000003a0: 6e53 993c 318d ce3c 438e c1bb f9a8 a53b
000003b0: 75d9 bebc 5072 b33c f0b7 083c d5b0 b5bc
000003c0: f387 993c 941d 233d e7c6 62bb 2eae 95b8
000003d0: 1070 6d3c 516a c33c f313 c6bc 3b5f fdbb
000003e0: 62ac bcbc f3c6 f63c 32db 9bbc 1d97 953c
000003f0: 1407 953c 99cb 343c 9720 a43c aee4 01bd
-0.025728166 0.028794628 -0.003272647 0.005516273 -0.0040390007 0.02380676 -0.026574401 -0.02177879
0.026686933 -0.009943172 0.033401966 -0.023748921 0.031731304 0.010673821 0.025138047 -0.02815835
0.02738091 -0.02623063 0.0037034666 0.025692005 0.016220247 0.008270167 0.0046597444 -0.01981597
0.0031932038 0.006621078 -0.030544128 0.006197153 0.015062751 0.01758414 0.0019421552 -0.0381064
0.021232704 0.021167504 -0.03789581 -0.04770985 -0.03458444 -0.008098832 -0.015487486 0.025915137
-0.01635856 -0.026137248 0.016105598 -0.0135702705 -0.024164531 -0.012932902 0.0053498885 0.0037291227
0.020305702 0.023492398 0.019213539 0.022759289 0.017309878 -0.037271753 -0.023766182 -0.012737369
0.02906898 0.01246675 -0.0012619767 -0.012864445 -0.037109498 0.017474394 0.007144365 -0.03561382
0.02638905 0.015731469 -0.012827278 -0.010513553 -0.032360815 -0.018881954 0.023015711 0.022868171
0.029999694 -0.02751352 0.027734146 -0.012607708 -0.032852866 -0.032272205 -0.001967379 -0.030099263
0.019329285 -0.012929649 0.0013458547 0.0048329835 -0.03156764 0.010104595 0.016982691 -0.025449084
-0.02281264 0.02579304 0.020751765 0.028650716 -0.012343033 -0.023290431 -0.035095997 0.0049427096
-0.03078099 -0.009636449 -0.011488836 -0.029095152 0.012646207 0.012115248 -0.0227805 0.031115612
0.024898501 -0.0021605515 -0.023161858 0.019619403 -0.009889042 0.018818555 -0.011661592 -0.013270769
-0.030108327 0.00488799 7.3946234e-05 0.0030936673 0.022642868 -0.026828213 -0.007837517 -0.0127094295
0.024535984 -0.0034434847 0.018418618 0.025268491 0.020693867 -0.007927763 -0.025275119 0.021732137
0.0025835843 0.024745462 0.0130451 -0.011317024 -0.013362304 0.029392218 -0.016221747 -0.004740981
0.0066618295 0.016102858 -0.031225432 0.029984912 -0.0014769898 0.0064816833 0.029292151 -0.03632468
0.034812305 0.01973595 0.01179066 0.003218304 -0.00670406 0.03343227 -0.00042270977 -0.03403495
0.027866872 0.0067088464 -0.028899444 0.013747199 0.01748612 -0.031285163 -0.015440863 -0.008045383
-0.011856921 -0.020580148 -0.0019914482 -0.007983415 0.008301434 0.013195327 -0.0028366176 -0.015088811
0.0072330693 -0.012519749 -0.022582226 -0.029999027 -0.013611135 -0.0026016522 0.011922203 0.026166428
-0.016467966 -0.009718065 -0.009381149 0.0045200936 0.016297372 0.029484117 0.009979607 -0.033411928
0.008368227 0.029076003 0.00032294387 0.0037140606 0.0132204015 -0.02176427 -0.015702667 0.029764147
-0.032968093 0.010993322 -0.007895478 0.012348762 -0.007855277 0.027243592 -0.013031142 -0.020603305
-0.024897415 -0.03349133 0.02368017 -0.020693773 0.021234652 0.0026410115 0.0026134562 0.030458001
-0.03451734 -0.023867916 0.033508394 -0.0025869487 0.01805361 0.030421792 0.014905965 0.0055569895
0.023900382 0.036374904 0.013897426 0.019278659 -0.034366082 0.02315805 0.014251784 -0.0041858805
0.030138178 0.031530835 -0.015403916 -0.041196913 0.013255602 -0.017540535 -0.002715363 -0.013149411
0.01871654 0.02521381 -0.0059068515 0.0050555435 -0.023297051 0.021905094 0.008344635 -0.022179047
0.018741583 0.03982313 -0.0034603418 -7.137317e-05 0.01449205 0.023854407 -0.024179434 -0.0077322996
-0.023031417 0.030124163 -0.019025419 0.018260533 0.018191852 0.01103487 0.020035071 -0.031712227
