bert/ablation/modernbert_o2_only_task_a/head_score.pt (torch, 4989 bytes, 1 tensors)

weight f4 [1, 768]
-0.04529296 -0.0011066768 0.013027858 0.008017795 -0.0028002858 0.009022354 -0.02086291 0.0015060762
-0.017405206 -0.013200486 -0.003954635 -0.0069397027 0.0046773823 0.003323798 -0.003806697 -0.02569587
-0.021383828 -0.018336928 0.025046116 0.0061029806 0.004373228 -0.004199729 -0.017394062 -0.015013129
0.00015126626 0.00062409515 -0.020394737 0.009384105 -0.01853947 -0.01802678 0.0048083346 0.0012340047
0.008069923 0.014277453 -0.010959931 0.0014996044 -0.004871152 0.020149551 -0.002549031 -0.015951978
-0.00014706011 -0.0025099134 -0.004725946 -0.010197685 -0.0046490305 -0.012888498 -0.018359855 0.0022781303
-0.0074574556 0.02054324 0.007824442 0.020763949 0.0060946937 0.0043116477 -0.007898719 0.00793104
0.00039848377 0.00060978223 0.01546256 -0.004418884 -0.014757475 0.010610943 -0.013167821 0.010088336
0.004909435 0.0026628594 0.015805082 0.013256833 -0.009614554 -0.00874922 -0.01514612 -0.0073322607
-0.015370606 -0.005740464 0.00035981048 -0.00082040054 -0.0125612235 0.003750387 0.012832395 0.02437827
0.018508341 0.009559266 -0.015219865 -0.001388133 -0.0013069119 -0.02014086 0.0039497996 0.015542358
-0.023840105 0.0025772557 0.0031169148 0.012453347 -0.01831266 0.015934713 -0.0030604622 0.010555684
-0.014467826 -0.006015752 2.0497364e-05 -0.0033764641 -0.004843877 0.022630703 0.026301635 -0.026012564
0.0031426644 -0.007612295 0.007494387 5.7559813e-05 0.0031677699 0.001993825 -0.00855315 -0.007170545
0.010904813 0.0037841185 -0.0065658484 -0.010176639 -0.019674981 0.02840138 0.010032546 0.0077616023
0.0011157515 -0.008035621 0.022239383 -0.024596523 0.013745564 -0.021744918 0.015389256 -0.004392862
-0.007744677 0.003983785 -0.0101705445 0.00030942436 0.0057169385 -0.002330181 0.016945543 -0.017112004
-0.014392531 -0.010442991 -0.013174191 0.005676894 -0.0045296326 0.008757671 0.0018550181 0.0071394104
0.017720565 -0.020796666 0.007614925 -0.0024203567 0.0015722682 0.0050651925 -0.013854619 0.0062547796
0.0024212177 -0.019945726 0.0060067237 0.006298667 -0.003469194 -0.0048775566 0.00015207422 0.012971883
-0.005926823 0.005764225 0.0010869148 -0.017253857 0.007883303 0.0077932733 -0.009128541 -0.010302874
0.014030178 -0.034797385 0.0045305206 0.010913859 0.0008112139 -0.0011081409 0.027977701 0.013376876
-0.013100958 -0.0020751448 -0.009069529 -0.0028278069 -0.013991188 -0.015809024 -0.0058596786 0.023541536
-0.00882713 -0.009279854 -0.027612856 0.00330682 -0.018405113 0.0061717494 0.009292103 0.017427426
0.009622693 -0.019530728 -0.0020881393 0.007164151 -0.01058529 -0.016487326 0.006691443 0.003635127
0.017675819 -0.008851354 -0.017480172 -0.000283259 -0.012915315 -0.009580701 -0.00064259284 -0.0015011304
-0.0048298496 0.0064356485 0.0025950707 -0.01286809 0.036119416 0.011522434 -0.0030189396 -0.017154293
-0.0028688323 -0.0028883629 0.020667056 0.01915339 0.025967646 -0.01231938 -0.0058609797 0.0012720799
0.009061243 0.007708051 0.012802653 -0.009567269 0.010451015 0.010216816 -0.009126142 -0.014883847
0.013252471 -0.004640326 0.0050924043 0.0059782052 -0.009879653 -0.008525593 -0.008068824 0.014092304
-0.016722776 -0.014139178 0.025093628 0.00039008522 0.010228012 -0.003956663 0.0026389463 0.0021064277
0.004204417 0.013854702 0.018907445 -0.013197292 -0.026586315 0.007906541 0.0011990803 0.00889447
00000000: 1c85 39bd e90d 91ba cc72 553c 125d 033c
00000010: 0085 37bb 7fd2 133c b2e8 aabc 8867 c53a
00000020: 5d95 8ebc da46 58bc e295 81bb 7266 e3bb
00000030: ba44 993b 14d4 593b c779 79bb 2580 d2bc
00000040: 232d afbc 5337 96bc 832d cd3c 83fb c73b
00000050: 4c4d 8f3b e19d 89bb fe7d 8ebc a1f9 75bc
00000060: 3a9d 1e39 519a 233a dd12 a7bc cabf 193c
00000070: 16e0 97bc e6ac 93bc 3c8f 9d3b 54be a13a
00000080: b637 043c faeb 693c 4891 33bc 608e c43a
00000090: 2f9e 9fbb ac10 a53c a50d 27bb b9ad 82bc
000000a0: 2634 1ab9 5c7d 24bb 1cdc 9abb 3114 27bc
000000b0: e556 98bb 472a 53bc 6867 96bc af4c 153b
000000c0: ac5d f4bb 4c4a a83c 1732 003c 2819 aa3c
000000d0: ffb5 c73b b948 8d3b a169 01bc 31f1 013c
000000e0: 96eb d039 cbd9 1f3a ad56 7d3c 49cc 90bb
000000f0: 56c9 71bc 85d9 2d3c d8bd 57bc 8c49 253c
00000100: 53df a03b 5e83 2e3b a979 813c 3033 593c
00000110: 5d86 1dbc e358 0fbc 6f27 78bc 7643 f0bb
00000120: ffd4 7bbc 811a bcbb f2a4 bc39 2610 57ba
00000130: 97cd 4dbc 0ec9 753b f73e 523c f0b4 c73c
00000140: ce9e 973c 789e 1c3c be5c 79bc 04f2 b5ba
00000150: b04c abba 72fe a4bc 526d 813b 60a5 7e3c
00000160: 534c c3bc 2de7 283b 2745 4c3b 2009 4c3c
00000170: 6e04 96bc 8489 823c 0992 48bb bff1 2c3c
00000180: 760a 6dbc c91f c5bb c1f1 ab37 ab47 5dbb
00000190: 63b9 9ebb 0664 b93c 8776 d73c 4d18 d5bc
000001a0: 29f5 4d3b 8f70 f9bb 7a93 f53b 616c 7138
000001b0: 5c9a 4f3b d5aa 023b 8322 0cbc e4f6 eabb
000001c0: 1aaa 323c f9fe 773b 5426 d7bb ebbb 26bc
000001d0: 6d2d a1bc 03aa e83c 8c5f 243c 0a55 fe3b
000001e0: 683e 923a d6a7 03bc 5e2f b63c a67e c9bc
000001f0: 1335 613c 6622 b2bc 3823 7c3c fff1 8fbb
00000200: 0fc7 fdbb 698a 823b 5ba2 26bc 3c3a a239
00000210: 2855 bb3b f3b5 18bb 61d1 8a3c 792e 8cbc
00000220: a6ce 6bbc 1419 2bbc 90d8 57bc 3d05 ba3b
00000230: 506d 94bb 567c 0f3c 1424 f33a b7f1 e93b
00000240: b82a 913c c55d aabc 9f86 f93b d99e 1ebb
00000250: 9114 ce3a eaf9 a53b 7cfe 62bc e5f4 cc3b
00000260: 4bad 1e3b 3865 a3bc 0dd4 c43b 0c65 ce3b
00000270: 6b5b 63bb e9d3 9fbb 1d76 1f39 0588 543c
00000280: cb35 c2bb d3e1 bc3b cf76 8e3a f657 8dbc
00000290: f828 013c b75e ff3b e08f 15bc 63cd 28bc
000002a0: d5de 653c b487 0ebd c374 943b 0bd0 323c
000002b0: a5a7 543a 0a3f 91ba 7e31 e53c af2a 5b3c
000002c0: 67a5 56bc 27ff 07bb 5d98 14bc ba52 39bb
000002d0: 4c3b 65bc ed81 81bc 8c02 c0bb 2eda c03c
000002e0: ab9f 10bc 870a 18bc 5b34 e2bc 3cb7 583b
000002f0: 52c6 96bc 633c ca3b e83d 183c f6c3 8e3c
00000300: 80a8 1d3c e8fe 9fbc 2ad9 08bb 41c1 ea3b
00000310: ed6d 2dbc 6e10 87bc e443 db3b 503b 6e3b
00000320: e1cc 903c 4505 11bc 9432 8fbc 6182 94b9
00000330: c29a 53bc 5ff8 1cbc ad73 28ba 94c1 c4ba
00000340: b743 9ebb 22e2 d23b 1012 2a3b aed4 52bc
00000350: f4f1 133d 97c8 3c3c 67d9 45bb 2987 8cbc
00000360: 0503 3cbb b04a 3dbb f54d a93c 92e7 9c3c
00000370: 1aba d43c 3ad7 49bc 760d c0bb ebbb a63a
00000380: 9c75 143c d193 fc3b 38c2 513c 09c0 1cbc
00000390: bc3a 2b3c 6f64 273c d085 15bc 61db 73bc
000003a0: e420 593c e00d 98bb 2fde a63b d2e4 c33b
000003b0: 45de 21bc eeae 0bbc 1a33 04bc 68e3 663c
000003c0: 34fe 88bc 03a8 67bc 2791 cd3c 5a84 cc39
000003d0: 6493 273c e5a6 81bb 2cf2 2c3b fe0b 0a3b
000003e0: 35c5 893b d5fe 623c c9e3 9a3c 7439 58bc
000003f0: 8bcb d9bc 708a 013c 752a 9d3a 1cba 113c
